cache/demo/offline/f0/score_model.pt (torch, 226483 bytes, 13 tensors)

base f4 [3]
000000 b3 2b 00 c0 00 00 00 00 00 00 00 00
       -2.0026672 0.0 0.0

ff.0.weight f4 [64, 67]
000000 00 00 00 00 00 00 00 00 00 00 00 00 00 00 00 00
       0.0 0.0 0.0 0.0
000010 00 00 00 00 00 00 00 00 00 00 00 00 00 00 00 00
       0.0 0.0 0.0 0.0
000020 00 00 00 00 00 00 00 00 00 00 00 00 00 00 00 00
       0.0 0.0 0.0 0.0
000030 00 00 00 00 00 00 00 00 00 00 00 00 00 00 00 00
       0.0 0.0 0.0 0.0
000040 00 00 00 00 00 00 00 00 00 00 00 00 00 00 00 00
       0.0 0.0 0.0 0.0
000050 00 00 00 00 00 00 00 00 00 00 00 00 00 00 00 00
       0.0 0.0 0.0 0.0
000060 00 00 00 00 00 00 00 00 00 00 00 00 00 00 00 00
       0.0 0.0 0.0 0.0
000070 00 00 00 00 00 00 00 00 00 00 00 00 00 00 00 00
       0.0 0.0 0.0 0.0
000080 00 00 00 00 00 00 00 00 00 00 00 00 00 00 00 00
       0.0 0.0 0.0 0.0
000090 00 00 00 00 00 00 00 00 00 00 00 00 00 00 00 00
       0.0 0.0 0.0 0.0
0000a0 00 00 00 00 00 00 00 00 00 00 00 00 00 00 00 00
       0.0 0.0 0.0 0.0
0000b0 00 00 00 00 00 00 00 00 00 00 00 00 00 00 00 00
       0.0 0.0 0.0 0.0
0000c0 00 00 00 00 00 00 00 00 00 00 00 00 00 00 00 00
       0.0 0.0 0.0 0.0
0000d0 00 00 00 00 00 00 00 00 00 00 00 00 00 00 00 00
       0.0 0.0 0.0 0.0
0000e0 00 00 00 00 00 00 00 00 00 00 00 00 00 00 00 00
       0.0 0.0 0.0 0.0
0000f0 00 00 00 00 00 00 00 00 00 00 00 00 00 00 00 00
       0.0 0.0 0.0 0.0
000100 00 00 00 00 00 00 00 00 00 00 00 00 00 00 00 00
       0.0 0.0 0.0 0.0
000110 00 00 00 00 00 00 00 00 00 00 00 00 00 00 00 00
       0.0 0.0 0.0 0.0
000120 00 00 00 00 00 00 00 00 00 00 00 00 00 00 00 00
       0.0 0.0 0.0 0.0
000130 00 00 00 00 00 00 00 00 00 00 00 00 00 00 00 00
       0.0 0.0 0.0 0.0
000140 00 00 00 00 00 00 00 00 00 00 00 00 00 00 00 00
       0.0 0.0 0.0 0.0
000150 00 00 00 00 00 00 00 00 00 00 00 00 00 00 00 00
       0.0 0.0 0.0 0.0
000160 00 00 00 00 00 00 00 00 00 00 00 00 00 00 00 00
       0.0 0.0 0.0 0.0
000170 00 00 00 00 00 00 00 00 00 00 00 00 00 00 00 00
       0.0 0.0 0.0 0.0
000180 00 00 00 00 00 00 00 00 00 00 00 00 00 00 00 00
       0.0 0.0 0.0 0.0
000190 00 00 00 00 00 00 00 00 00 00 00 00 00 00 00 00
       0.0 0.0 0.0 0.0
0001a0 00 00 00 00 00 00 00 00 00 00 00 00 00 00 00 00
       0.0 0.0 0.0 0.0
0001b0 00 00 00 00 00 00 00 00 00 00 00 00 00 00 00 00
       0.0 0.0 0.0 0.0
0001c0 00 00 00 00 00 00 00 00 00 00 00 00 00 00 00 00
       0.0 0.0 0.0 0.0
0001d0 00 00 00 00 00 00 00 00 00 00 00 00 00 00 00 00
       0.0 0.0 0.0 0.0
0001e0 00 00 00 00 00 00 00 00 00 00 00 00 00 00 00 00
       0.0 0.0 0.0 0.0
0001f0 00 00 00 00 00 00 00 00 00 00 00 00 00 00 00 00
       0.0 0.0 0.0 0.0
000200 00 00 00 00 00 00 00 00 00 00 00 00 00 00 00 00
       0.0 0.0 0.0 0.0
000210 00 00 00 00 00 00 00 00 00 00 00 00 00 00 00 00
       0.0 0.0 0.0 0.0
000220 00 00 00 00 00 00 00 00 00 00 00 00 00 00 00 00
       0.0 0.0 0.0 0.0
000230 00 00 00 00 00 00 00 00 00 00 00 00 00 00 00 00
       0.0 0.0 0.0 0.0
000240 00 00 00 00 00 00 00 00 00 00 00 00 00 00 00 00
       0.0 0.0 0.0 0.0
000250 00 00 00 00 00 00 00 00 00 00 00 00 00 00 00 00
       0.0 0.0 0.0 0.0
000260 00 00 00 00 00 00 00 00 00 00 00 00 00 00 00 00
       0.0 0.0 0.0 0.0
000270 00 00 00 00 00 00 00 00 00 00 00 00 00 00 00 00
       0.0 0.0 0.0 0.0
000280 00 00 00 00 00 00 00 00 00 00 00 00 00 00 00 00
       0.0 0.0 0.0 0.0
000290 00 00 00 00 00 00 00 00 00 00 00 00 00 00 00 00
       0.0 0.0 0.0 0.0
0002a0 00 00 00 00 00 00 00 00 00 00 00 00 00 00 00 00
       0.0 0.0 0.0 0.0
0002b0 00 00 00 00 00 00 00 00 00 00 00 00 00 00 00 00
       0.0 0.0 0.0 0.0
0002c0 00 00 00 00 00 00 00 00 00 00 00 00 00 00 00 00
       0.0 0.0 0.0 0.0
0002d0 00 00 00 00 00 00 00 00 00 00 00 00 00 00 00 00
       0.0 0.0 0.0 0.0
0002e0 00 00 00 00 00 00 00 00 00 00 00 00 00 00 00 00
       0.0 0.0 0.0 0.0
0002f0 00 00 00 00 00 00 00 00 00 00 00 00 00 00 00 00
       0.0 0.0 0.0 0.0
000300 00 00 00 00 00 00 00 00 00 00 00 00 00 00 00 00
       0.0 0.0 0.0 0.0
000310 00 00 00 00 00 00 00 00 00 00 00 00 00 00 00 00
       0.0 0.0 0.0 0.0
000320 00 00 00 00 00 00 00 00 00 00 00 00 00 00 00 00
       0.0 0.0 0.0 0.0
000330 00 00 00 00 00 00 00 00 00 00 00 00 00 00 00 00
       0.0 0.0 0.0 0.0
000340 00 00 00 00 00 00 00 00 00 00 00 00 00 00 00 00
       0.0 0.0 0.0 0.0
000350 00 00 00 00 00 00 00 00 00 00 00 00 00 00 00 00
       0.0 0.0 0.0 0.0
000360 00 00 00 00 00 00 00 00 00 00 00 00 00 00 00 00
       0.0 0.0 0.0 0.0
000370 00 00 00 00 00 00 00 00 00 00 00 00 00 00 00 00
       0.0 0.0 0.0 0.0
000380 00 00 00 00 00 00 00 00 00 00 00 00 00 00 00 00
       0.0 0.0 0.0 0.0
000390 00 00 00 00 00 00 00 00 00 00 00 00 00 00 00 00
       0.0 0.0 0.0 0.0
0003a0 00 00 00 00 00 00 00 00 00 00 00 00 00 00 00 00
       0.0 0.0 0.0 0.0
0003b0 00 00 00 00 00 00 00 00 00 00 00 00 00 00 00 00
       0.0 0.0 0.0 0.0
0003c0 00 00 00 00 00 00 00 00 00 00 00 00 00 00 00 00
       0.0 0.0 0.0 0.0
0003d0 00 00 00 00 00 00 00 00 00 00 00 00 00 00 00 00
       0.0 0.0 0.0 0.0
0003e0 00 00 00 00 00 00 00 00 00 00 00 00 00 00 00 00
       0.0 0.0 0.0 0.0
0003f0 00 00 00 00 00 00 00 00 00 00 00 00 00 00 00 00
       0.0 0.0 0.0 0.0

ff.0.bias f4 [64]
000000 00 00 00 00 00 00 00 00 00 00 00 00 00 00 00 00
       0.0 0.0 0.0 0.0
000010 00 00 00 00 00 00 00 00 00 00 00 00 00 00 00 00
       0.0 0.0 0.0 0.0
000020 00 00 00 00 00 00 00 00 00 00 00 00 00 00 00 00
       0.0 0.0 0.0 0.0
000030 00 00 00 00 00 00 00 00 00 00 00 00 00 00 00 00
       0.0 0.0 0.0 0.0
000040 00 00 00 00 00 00 00 00 00 00 00 00 00 00 00 00
       0.0 0.0 0.0 0.0
000050 00 00 00 00 00 00 00 00 00 00 00 00 00 00 00 00
       0.0 0.0 0.0 0.0
000060 00 00 00 00 00 00 00 00 00 00 00 00 00 00 00 00
       0.0 0.0 0.0 0.0
000070 00 00 00 00 00 00 00 00 00 00 00 00 00 00 00 00
       0.0 0.0 0.0 0.0
000080 00 00 00 00 00 00 00 00 00 00 00 00 00 00 00 00
       0.0 0.0 0.0 0.0
000090 00 00 00 00 00 00 00 00 00 00 00 00 00 00 00 00
       0.0 0.0 0.0 0.0
0000a0 00 00 00 00 00 00 00 00 00 00 00 00 00 00 00 00
       0.0 0.0 0.0 0.0
0000b0 00 00 00 00 00 00 00 00 00 00 00 00 00 00 00 00
       0.0 0.0 0.0 0.0
0000c0 00 00 00 00 00 00 00 00 00 00 00 00 00 00 00 00
       0.0 0.0 0.0 0.0
0000d0 00 00 00 00 00 00 00 00 00 00 00 00 00 00 00 00
       0.0 0.0 0.0 0.0
0000e0 00 00 00 00 00 00 00 00 00 00 00 00 00 00 00 00
       0.0 0.0 0.0 0.0
0000f0 00 00 00 00 00 00 00 00 00 00 00 00 00 00 00 00
       0.0 0.0 0.0 0.0

ff.2.weight f4 [3, 64]
000000 00 00 00 00 00 00 00 00 00 00 00 00 00 00 00 00
       0.0 0.0 0.0 0.0
000010 00 00 00 00 00 00 00 00 00 00 00 00 00 00 00 00
       0.0 0.0 0.0 0.0
000020 00 00 00 00 00 00 00 00 00 00 00 00 00 00 00 00
       0.0 0.0 0.0 0.0
000030 00 00 00 00 00 00 00 00 00 00 00 00 00 00 00 00
       0.0 0.0 0.0 0.0
000040 00 00 00 00 00 00 00 00 00 00 00 00 00 00 00 00
       0.0 0.0 0.0 0.0
000050 00 00 00 00 00 00 00 00 00 00 00 00 00 00 00 00
       0.0 0.0 0.0 0.0
000060 00 00 00 00 00 00 00 00 00 00 00 00 00 00 00 00
       0.0 0.0 0.0 0.0
000070 00 00 00 00 00 00 00 00 00 00 00 00 00 00 00 00
       0.0 0.0 0.0 0.0
000080 00 00 00 00 00 00 00 00 00 00 00 00 00 00 00 00
       0.0 0.0 0.0 0.0
000090 00 00 00 00 00 00 00 00 00 00 00 00 00 00 00 00
       0.0 0.0 0.0 0.0
0000a0 00 00 00 00 00 00 00 00 00 00 00 00 00 00 00 00
       0.0 0.0 0.0 0.0
0000b0 00 00 00 00 00 00 00 00 00 00 00 00 00 00 00 00
       0.0 0.0 0.0 0.0
0000c0 00 00 00 00 00 00 00 00 00 00 00 00 00 00 00 00
       0.0 0.0 0.0 0.0
0000d0 00 00 00 00 00 00 00 00 00 00 00 00 00 00 00 00
       0.0 0.0 0.0 0.0
0000e0 00 00 00 00 00 00 00 00 00 00 00 00 00 00 00 00
       0.0 0.0 0.0 0.0
0000f0 00 00 00 00 00 00 00 00 00 00 00 00 00 00 00 00
       0.0 0.0 0.0 0.0
000100 00 00 00 00 00 00 00 00 00 00 00 00 00 00 00 00
       0.0 0.0 0.0 0.0
000110 00 00 00 00 00 00 00 00 00 00 00 00 00 00 00 00
       0.0 0.0 0.0 0.0
000120 00 00 00 00 00 00 00 00 00 00 00 00 00 00 00 00
       0.0 0.0 0.0 0.0
000130 00 00 00 00 00 00 00 00 00 00 00 00 00 00 00 00
       0.0 0.0 0.0 0.0
000140 00 00 00 00 00 00 00 00 00 00 00 00 00 00 00 00
       0.0 0.0 0.0 0.0
000150 00 00 00 00 00 00 00 00 00 00 00 00 00 00 00 00
       0.0 0.0 0.0 0.0
000160 00 00 00 00 00 00 00 00 00 00 00 00 00 00 00 00
       0.0 0.0 0.0 0.0
000170 00 00 00 00 00 00 00 00 00 00 00 00 00 00 00 00
       0.0 0.0 0.0 0.0
000180 00 00 00 00 00 00 00 00 00 00 00 00 00 00 00 00
       0.0 0.0 0.0 0.0
000190 00 00 00 00 00 00 00 00 00 00 00 00 00 00 00 00
       0.0 0.0 0.0 0.0
0001a0 00 00 00 00 00 00 00 00 00 00 00 00 00 00 00 00
       0.0 0.0 0.0 0.0
0001b0 00 00 00 00 00 00 00 00 00 00 00 00 00 00 00 00
       0.0 0.0 0.0 0.0
0001c0 00 00 00 00 00 00 00 00 00 00 00 00 00 00 00 00
       0.0 0.0 0.0 0.0
0001d0 00 00 00 00 00 00 00 00 00 00 00 00 00 00 00 00
       0.0 0.0 0.0 0.0
0001e0 00 00 00 00 00 00 00 00 00 00 00 00 00 00 00 00
       0.0 0.0 0.0 0.0
0001f0 00 00 00 00 00 00 00 00 00 00 00 00 00 00 00 00
       0.0 0.0 0.0 0.0
000200 00 00 00 00 00 00 00 00 00 00 00 00 00 00 00 00
       0.0 0.0 0.0 0.0
000210 00 00 00 00 00 00 00 00 00 00 00 00 00 00 00 00
       0.0 0.0 0.0 0.0
000220 00 00 00 00 00 00 00 00 00 00 00 00 00 00 00 00
       0.0 0.0 0.0 0.0
000230 00 00 00 00 00 00 00 00 00 00 00 00 00 00 00 00
       0.0 0.0 0.0 0.0
000240 00 00 00 00 00 00 00 00 00 00 00 00 00 00 00 00
       0.0 0.0 0.0 0.0
000250 00 00 00 00 00 00 00 00 00 00 00 00 00 00 00 00
       0.0 0.0 0.0 0.0
000260 00 00 00 00 00 00 00 00 00 00 00 00 00 00 00 00
       0.0 0.0 0.0 0.0
000270 00 00 00 00 00 00 00 00 00 00 00 00 00 00 00 00
       0.0 0.0 0.0 0.0
000280 00 00 00 00 00 00 00 00 00 00 00 00 00 00 00 00
       0.0 0.0 0.0 0.0
000290 00 00 00 00 00 00 00 00 00 00 00 00 00 00 00 00
       0.0 0.0 0.0 0.0
0002a0 00 00 00 00 00 00 00 00 00 00 00 00 00 00 00 00
       0.0 0.0 0.0 0.0
0002b0 00 00 00 00 00 00 00 00 00 00 00 00 00 00 00 00
       0.0 0.0 0.0 0.0
0002c0 00 00 00 00 00 00 00 00 00 00 00 00 00 00 00 00
       0.0 0.0 0.0 0.0
0002d0 00 00 00 00 00 00 00 00 00 00 00 00 00 00 00 00
       0.0 0.0 0.0 0.0
0002e0 00 00 00 00 00 00 00 00 00 00 00 00 00 00 00 00
       0.0 0.0 0.0 0.0
0002f0 00 00 00 00 00 00 00 00 00 00 00 00 00 00 00 00
       0.0 0.0 0.0 0.0

ff.2.bias f4 [3]
000000 00 00 00 00 00 00 00 00 00 00 00 00
       0.0 0.0 0.0

rn.weight_ih_l0 f4 [256, 3]
000000 0c 41 4d bd 60 64 0b 3c 10 82 17 bd da 13 d8 bd
       -0.05011086 0.008507818 -0.03698927 -0.105506614
000010 e6 04 e1 3d 00 ec e2 3c ba a2 b1 bd 10 e7 e8 bd
       0.109872624 0.027700424 -0.08673616 -0.11372197
000020 6a 94 b2 bd 48 75 4e bd b2 b9 aa bd f8 1f 67 bd
       -0.08719714 -0.050404817 -0.083362 -0.056426972
000030 60 72 b7 3d b0 1e 5f 3d 20 89 ae 3c 64 f7 ec bd
       0.08957362 0.054472625 0.02130562 -0.115706235
000040 be 28 b3 3d bc 9e a5 bd 0c 33 87 3d 80 2f 4b 3c
       0.08748005 -0.08086917 0.06601533 0.012401462
000050 14 f7 33 bd 28 ac 4b 3d 6c 4b 96 3d 0c 86 40 3d
       -0.043936804 0.049724728 0.07338604 0.047002837
000060 18 1d d7 3d 80 4d c9 bb 80 e6 4d 3b 2c fd 35 bd
       0.10503596 -0.006143272 0.0031417906 -0.044430897
000070 a0 ad 7f bd 20 ca 99 3b 80 e9 e0 3b c8 25 e3 bd
       -0.06242144 0.0046932846 0.006863773 -0.110911906
000080 40 8b 51 3c 12 52 d1 bd 18 c5 4f 3d a0 eb b5 3b
       0.012789547 -0.10220732 0.050725073 0.0055517703
000090 52 19 8d bd 8c 08 0f bd 30 78 ba bd 40 44 9f 3c
       -0.06889595 -0.03492026 -0.09104955 0.019441724
0000a0 8a c9 c7 bd 9a bd b2 3d 08 e7 87 3d 16 bc 89 bd
       -0.097552374 0.0872757 0.066358626 -0.06725328
0000b0 a0 ee db bc c4 f9 85 bd 48 4d 03 3d 08 5a bc bd
       -0.026847184 -0.0654178 0.032056123 -0.091968596
0000c0 f8 5d 8b bd b0 93 c1 3c 50 eb 35 3d 20 36 6a bd
       -0.068050325 0.023629993 0.044413865 -0.057180524
0000d0 ec ee 46 bd ec 2d 8a 3d a4 9d ec 3d 0c cd bd bd
       -0.048567697 0.0674704 0.11553505 -0.09267625
0000e0 bc 29 11 3d 78 2d ee 3d 10 86 35 bd aa 8e af 3d
       0.03544019 0.11629766 -0.044317305 0.08572133
0000f0 80 e8 c4 ba 30 ba 34 bc ba a1 b4 3d e0 90 fe bb
       -0.0015022904 -0.011030719 0.088199094 -0.0077687353
000100 2a fb 9b 3d 54 0b c2 3d 6c 4a a1 bd 4a 07 a3 bd
       0.07616265 0.09474817 -0.07875523 -0.07960375
000110 00 5d e5 3c 2a 77 d3 3d f8 0c cb bc c0 78 a6 bd
       0.027998447 0.10325463 -0.024786457 -0.081285
000120 e8 42 d1 3c f6 7f ab 3d 2a 77 f5 3d 82 37 82 bd
       0.025544599 0.08374016 0.11985619 -0.063582435
000130 f8 0e f9 bc 08 74 b7 3d c8 3c d8 bd 10 6d 76 bc
       -0.030402645 0.08957678 -0.10558468 -0.015040651
000140 48 f2 86 3c a0 e6 92 3c ec 37 fe 3d 24 c2 d7 bd
       0.01647295 0.017932236 0.1241301 -0.10535076
000150 10 65 b7 3c 50 5b a6 bd 00 bb ab bc f0 39 db bc
       0.022387058 -0.08122885 -0.020963192 -0.026761025
000160 70 70 89 bc 1e b2 89 bd 1e a0 fc 3d 68 2e 01 3d
       -0.016777247 -0.06723426 0.123352274 0.031538397
000170 74 21 0f 3d 88 4a ce bc d8 81 c8 bc 3e ce e3 3d
       0.034944013 -0.025182024 -0.024475977 0.11123322
000180 00 2e 0c 3c e8 64 c7 3d f0 29 67 3d c0 c0 44 3d
       0.008555889 0.09736043 0.05643648 0.048035383
000190 32 ce c1 bd 40 1a 6e 3c 44 0f 36 3d 7c 21 97 3d
       -0.09463157 0.014532626 0.044448152 0.073794335
0001a0 ce 01 b6 bd 6c b1 74 3d ee b4 da 3d 50 b2 24 bc
       -0.08887063 0.059739515 0.10679041 -0.010052279
0001b0 e8 4f b0 bd 96 56 8c 3d fa 0f fb bd 50 7d a8 3c
       -0.08608991 0.068524525 -0.12258907 0.020567566
0001c0 6a 94 ac 3d f2 0f ef bd 8a 3f 82 bd 12 ee 93 3d
       0.08426745 -0.11672963 -0.06359775 0.07223143
0001d0 20 8c 55 bd 08 5e 90 bc 08 8e bd 3d 20 39 18 3c
       -0.052135587 -0.017622963 0.09255606 0.009290963
0001e0 08 b5 e5 3d 60 a4 39 3c 64 4b e4 3d f0 16 23 bc
       0.112161696 0.011330694 0.11147192 -0.009954199
0001f0 00 e8 a8 bd 5a 01 b7 3d c4 54 ce bd 40 a2 ac 3d
       -0.082473755 0.08935805 -0.100747615 0.08429384
000200 68 e2 57 bd 26 6e 88 3d 88 68 a5 bd ea 19 8f bd
       -0.052706152 0.06661634 -0.080765784 -0.069873646
000210 b0 17 98 bd b0 f7 58 bd 1e 69 ab 3d 96 45 88 bd
       -0.07426393 -0.05297059 0.08369659 -0.066538975
000220 b6 9e da bd a4 73 09 bd 52 58 cf bd e0 70 87 3c
       -0.10674803 -0.03355755 -0.10124268 0.016533315
000230 50 71 f8 3c a0 e1 d4 bc 2a 9f d9 bd 92 7c d2 bd
       0.03032747 -0.025986493 -0.10626061 -0.10277666
000240 80 ac da 3b 20 55 77 bd b8 43 cd bd c0 88 81 bb
       0.0066733956 -0.060383916 -0.10022682 -0.0039530694
000250 00 32 ae 3d 0a 35 db bd d0 77 ce bc a4 e3 c4 bd
       0.085056305 -0.10703476 -0.025203615 -0.096137315
000260 d8 7d d3 bd 82 bc f3 bd 00 11 50 ba 2e 1e 85 bd
       -0.10326737 -0.119011894 -0.00079371035 -0.06499897
000270 da 6f 92 3d 34 64 6c bd 3c 32 49 3d 98 2c 17 bd
       0.0715024 -0.05771275 0.049120173 -0.036907762
000280 1e 89 f4 3d ee bb b1 bd fa c4 88 bd a0 97 ea 3b
       0.119402155 -0.08678423 -0.06678195 0.0071591884
000290 28 06 f8 bd 92 09 f4 bd 28 1e 20 bd 10 7f 8b 3c
       -0.12110549 -0.11915888 -0.03909126 0.017028362
0002a0 58 c0 c8 bc 90 ab 2e 3d 90 05 9c 3d b2 29 f5 3d
       -0.02450578 0.042644083 0.076182485 0.119708434
0002b0 2c 1d b2 3d 30 5d 9b 3c 98 e2 0d bd 12 e7 de 3d
       0.0869697 0.018965334 -0.034639925 0.10883917
0002c0 ec 83 fc bd 7c 6c b2 bd 86 79 f0 bd 30 68 d0 3d
       -0.123298496 -0.08712098 -0.11741929 0.10176122
0002d0 00 ed 65 bd 60 94 46 bc c6 bc fd bd 20 c6 e4 bb
       -0.056134224 -0.012120336 -0.12389521 -0.006981626
0002e0 a8 b9 74 bd a0 6b be 3d 9c 11 9e 3d c0 15 f0 3b
       -0.059747368 0.092978716 0.077182025 0.0073268116
0002f0 a0 f6 7c bc c0 df f2 bb 96 00 bf bd 06 da ed bd
       -0.015439659 -0.007411927 -0.09326284 -0.1161385
000300 30 36 44 bc aa bb d7 3d 08 e3 e9 3c e8 f7 87 3c
       -0.01197581 0.10533841 0.02855064 0.016597703
000310 c0 82 1b bd b0 e1 e2 bc 78 6a 98 3c 00 86 a0 b9
       -0.03796649 -0.027695507 0.018605456 -0.00030617416
000320 3c a2 f7 bd f0 e4 39 3c 4e 1d c6 bd ea 94 e0 bd
       -0.120914906 0.011346087 -0.09673558 -0.10965903
000330 ee 0b b8 bd aa 9a e5 bd 88 8f d8 3c c4 e3 fe 3d
       -0.089866504 -0.112111405 0.026435629 0.124457866
000340 a2 9d 92 bd ea 11 ea bd 9a 34 ac bd 0c 3f 21 bd
       -0.07158972 -0.11429198 -0.084084705 -0.039366767
000350 a0 d8 9f bb 84 cd 16 3d 5e 12 97 3d d4 78 f9 bd
       -0.0048781186 0.03681709 0.0737655 -0.12181249
000360 bc e7 a7 bd 98 1e 24 bd 0c 91 53 3d 7e 29 97 bd
       -0.08198497 -0.04006824 0.051652 -0.07380961
000370 a0 ab de 3d 44 86 79 bd 10 1f 75 3c 96 0d 8c 3d
       0.108725786 -0.06091906 0.014961019 0.06838529
000380 76 db da 3d 9c fe 89 3d 8e 1e 9f 3d 5c d6 ee 3d
       0.1068639 0.06738016 0.077695 0.116619796
000390 84 65 cf bd 0e 05 b8 3d 40 b9 81 3c 1c b2 e5 bd
       -0.101267844 0.08985339 0.015835404 -0.11215612
0003a0 7a 7d fc bd 3c c3 a8 bd a8 79 fd 3d f6 c0 c1 bd
       -0.1232862 -0.08240363 0.1237672 -0.094606325
0003b0 de f5 af 3d a4 5b 80 3d a8 44 21 bd fc bd 57 3d
       0.08591817 0.06267479 -0.039372116 0.052671418
0003c0 bc 52 4d 3d f0 3f 4e 3d 24 e9 45 3d ea b6 b0 bd
       0.05012773 0.050353944 0.048318043 -0.08628638
0003d0 00 55 8d bb 76 ee a2 bd 20 c6 e9 bc d4 5d ad bd
       -0.0043131113 -0.07955639 -0.028536856 -0.08465162
0003e0 34 89 1f bd a0 d9 65 3c 78 fe e6 3c 44 7f 35 bd
       -0.038949206 0.014028937 0.028197512 -0.044310823
0003f0 42 b1 cf 3d 00 ef e8 3a ec af b4 3d d0 dd ba 3c
       0.10141231 0.0017771423 0.08822617 0.022810847

rn.weight_hh_l0 f4 [256, 64]
000000 60 ef c8 bc e4 fd 5e bd 7a 6c a1 3d c4 21 72 bd
       -0.024528205 -0.054441348 0.078820184 -0.059114233
000010 00 f7 fd bc 96 c7 8a 3d 14 b1 ef bd 64 52 7e bd
       -0.031001568 0.06776349 -0.11703697 -0.062090293
000020 0c e4 51 3d 88 b5 9e 3c fa dd ee 3d de 70 d6 bd
       0.051242873 0.01937367 0.116634324 -0.104707465
000030 84 9d 2e bd 88 48 86 3d e0 a2 d3 bb 78 fb fa 3d
       -0.042630687 0.06556803 -0.006458625 0.12254995
000040 30 5a b8 bd 50 92 dd 3c b4 10 cb bd 40 ea b8 bb
       -0.09001577 0.027047306 -0.09915295 -0.005643159
000050 d8 0d 4c 3d b2 b4 e0 bd 9e 0c f0 3d 00 03 e3 ba
       0.04981789 -0.10971965 0.117211565 -0.001731962
000060 10 09 78 3c 58 44 57 bd c0 72 e0 bb 96 e8 90 3d
       0.015138879 -0.052555412 -0.0068496168 0.07075612
000070 78 b7 b8 3c fe 5a fa 3d 9c 4a 81 3d 70 18 17 3c
       0.022548422 0.12224387 0.06313059 0.009222135
000080 e2 24 bc 3d 78 5e 62 bd 40 e9 d3 3c 0c 36 34 bd
       0.09186722 -0.055265874 0.025868058 -0.043996856
000090 3c 24 11 3d 68 67 85 3c 16 cd bf bd 00 d3 ff bd
       0.035434946 0.01628466 -0.09365289 -0.12491417
0000a0 ac a0 52 bd 68 7a a5 3c d8 47 67 bd ec 41 8c 3d
       -0.05142276 0.02019997 -0.056465 0.06848511
0000b0 58 58 4a 3d 1a fe 93 bd a8 a5 ec bc a0 57 89 bb
       0.049400657 -0.072262004 -0.028887585 -0.004191354
0000c0 90 4e df bd 40 9c 1c bd 58 c6 f4 bc 28 72 f1 bd
       -0.109036565 -0.03823495 -0.029879734 -0.11789352
0000d0 b8 28 51 3d d0 71 39 bc 7c a1 ea 3d 4c bd 7f bd
       0.051064223 -0.011318639 0.11456582 -0.062436387
0000e0 8c e4 ce 3d 08 ca cc 3d ec e4 46 3d a4 bf 43 3d
       0.101021856 0.09999472 0.04855816 0.047790185
0000f0 46 1b b2 bd 3c 26 a5 bd ec 5d 2e 3d 00 b6 e8 bb
       -0.08696608 -0.08063933 0.04257004 -0.007101774
000100 3e 64 a1 bd 40 33 1a bc b6 fe f6 bd 10 76 58 3d
       -0.07880448 -0.009411633 -0.12060301 0.05284697
000110 14 f9 d1 bd c8 fa ef 3d 0e 80 d5 bd 5c 0d 27 3d
       -0.10252586 0.117177546 -0.10424815 0.040784225
000120 2c cf 68 bd f4 36 71 3d 24 70 d6 bd c0 e6 17 3c
       -0.0568382 0.058890298 -0.10470608 0.009271324
000130 2c 11 b6 3d 58 70 96 bd f4 aa 64 3d 3a 3a 89 bd
       0.08889994 -0.073456466 0.055827096 -0.06700559
000140 3e 5a aa bd 8c d3 f6 3d 84 68 05 bd 62 77 db bd
       -0.083179936 0.12052068 -0.032570377 -0.1071613
000150 7c 34 37 3d 60 1e ea 3c d8 53 ef 3c 80 5b c3 bc
       0.044727787 0.028578937 0.029214785 -0.023847342
000160 a8 cf 0e 3d 58 61 dd bd 42 43 96 3d 8e 3c 91 bd
       0.034866005 -0.108095825 0.07337047 -0.07091628
000170 d8 13 fd bd 46 93 91 3d d8 9e 95 3c 54 b5 4a bd
       -0.123573005 0.07108168 0.01826422 -0.049489334
000180 d0 69 39 3c 04 42 11 bd a8 7f a8 3c 6c f0 18 3d
       0.011316732 -0.035463348 0.020568684 0.03733866
000190 6c 74 e3 bd cc dd da bd 9c 43 63 3d 90 b4 8c bd
       -0.1110619 -0.10686836 0.0554844 -0.06870377
0001a0 b8 1b c4 bc 04 07 d6 bd 00 c1 f1 3a 40 22 24 bb
       -0.023938999 -0.10450557 0.0018444359 -0.0025044829
0001b0 d2 c5 86 bd 12 bd 89 bd e8 ff 88 3d 50 47 0c 3d
       -0.065807 -0.067255154 0.06689435 0.034247696
0001c0 88 42 7c 3d 80 85 5b bb aa 58 b4 bd 34 1e 03 3d
       0.061586887 -0.003349632 -0.08805974 0.032011226
0001d0 12 bd f3 bd 70 c0 7b bd 22 41 ff bd 38 bb 00 bd
       -0.11901297 -0.06146282 -0.12463595 -0.031428546
0001e0 e6 70 e6 3d 7a 9c b8 3d 70 c8 42 bc b0 e0 ee 3c
       0.112520024 0.090142205 -0.011888608 0.029159874
0001f0 46 6e d9 3d 40 a0 e8 bb f0 02 d6 bd c8 a4 c3 bc
       0.10616736 -0.0070991814 -0.10449779 -0.023882285
000200 a4 83 85 bd 20 fe eb bd 76 39 a0 bd 10 35 7b 3c
       -0.06519249 -0.1152308 -0.0782346 0.015332475
000210 7a 1d ab 3d 62 95 81 3d 68 58 cc bd 30 b7 bc bc
       0.083552316 0.06327321 -0.099778 -0.02303657
000220 f4 bc 4a bd c8 3d 8e bc 80 2f 21 bc fe 99 f2 bd
       -0.049496606 -0.017363444 -0.009837985 -0.11845778
000230 c8 70 93 3c c0 6b 4a bb 2e ac 95 3d 40 44 22 3c
       0.017998114 -0.0030886978 0.07308231 0.009903967
000240 f4 fa ad bd b0 cd 55 3c a0 89 87 bc ac 6c 6d 3d
       -0.08495131 0.013049528 -0.016545117 0.057964966
000250 80 c9 f1 3c d6 47 bf 3d 7c 23 3f bd fc 1f 9c 3d
       0.029515028 0.093398735 -0.0466647 0.07623288
000260 c8 64 ea bd fa ca 86 3d e0 45 71 bd 74 e5 d5 bd
       -0.11445004 0.065816835 -0.05890453 -0.10444155
000270 e0 83 d6 bd 10 0a e3 3d 40 b6 4b bd 22 06 97 bd
       -0.10474372 0.11085904 -0.049734354 -0.073742166
000280 40 70 77 bb 20 e0 62 3d 02 84 f4 3d 88 43 aa 3c
       -0.0037756115 0.055389524 0.11939241 0.020784155
000290 3c d2 0d bd d2 e9 ef bd ac 50 46 3d 20 a7 e3 bc
       -0.034624323 -0.117145196 0.04841678 -0.027789652
0002a0 1c f0 c6 bd 8c b6 c7 3d 78 2a eb bd b0 8d ea bc
       -0.09713766 0.09751615 -0.1148271 -0.028632015
0002b0 e6 25 c3 bd 98 e9 85 3c 74 67 4f 3d 32 c2 c0 bd
       -0.09528713 0.016346738 0.05063577 -0.0941204
0002c0 84 39 22 3d b4 da 0e bd 72 8f fa bd f8 38 9c bc
       0.039605632 -0.03487654 -0.12234391 -0.019070134
0002d0 d4 bc 41 bd 10 fc 8d bc ec e1 04 3d 00 b6 42 bc
       -0.04729922 -0.017332107 0.03244202 -0.0118842125
0002e0 10 10 2b 3c 70 10 c1 3c e0 91 84 3d f4 5e 25 bd
       0.010440841 0.023567408 0.06473136 -0.040373757
0002f0 34 ba de bd 60 d4 c7 3c 6a 7d a7 bd 10 78 ef bd
       -0.10875359 0.02439326 -0.08178218 -0.11692822
000300 20 1b 81 bb 20 8f dd 3c 60 db 81 bc 96 31 be bd
       -0.003940001 0.027045786 -0.015851676 -0.092868015
000310 6c 1e 19 bd de 49 ee 3d 30 1c 0e 3c 6a 30 e4 3d
       -0.03738253 0.11635183 0.008673713 0.11142047
000320 14 94 93 bd 40 0f 25 3c ea bb d4 3d 96 a9 ab 3d
       -0.07205978 0.010074437 0.10387404 0.08381955
000330 54 dd c7 3d c0 f9 1e 3c 62 fd 9d bd 78 ff 06 bd
       0.09759012 0.0097031 -0.077143446 -0.032958478
000340 e0 50 5e bd a0 02 c8 3c 50 ad 8a 3c 70 b5 cd 3c
       -0.054276347 0.024415314 0.016928345 0.02511093
000350 e8 35 42 3d 80 ef 05 bd a0 20 9e bc b4 20 36 3d
       0.04741469 -0.032699108 -0.019302666 0.044464782
000360 b8 b6 60 bd 5a 14 ba 3d 36 17 c5 3d 22 2a b7 3d
       -0.054861754 0.09085913 0.09623568 0.08943583
000370 5a 49 bf 3d 02 57 cd 3d dc 0f a2 bd 28 ee 93 bc
       0.093401626 0.10026361 -0.07913181 -0.018057898
000380 4a 44 9a bd 20 50 22 3c f4 fb 2e bd 9e 1a c8 3d
       -0.07532556 0.009906799 -0.04272075 0.09770702
000390 38 1e 30 3d 48 8f 0d bd 38 b4 57 3d bc 32 7d bd
       0.04299757 -0.03456047 0.052662104 -0.061815962
0003a0 34 7c 88 bd 08 20 db 3d c0 f7 60 3c e8 b9 e0 bd
       -0.06664315 0.10699469 0.013730943 -0.10972959
0003b0 1e bb ea bd 00 c8 64 bc 32 ef ba bd ae cb cc bd
       -0.11461471 -0.013963699 -0.09127654 -0.09999786
0003c0 76 1d ce bd 40 8b 1d bc 24 59 8c 3d ae 32 f4 bd
       -0.10064213 -0.009615719 0.0685294 -0.11923729
0003d0 dc d0 a1 3d 18 61 1d bd 46 1d 9e bd 04 4b d5 bd
       0.07901165 -0.038422674 -0.07720427 -0.10414699
0003e0 48 92 3e bd 6a 0d b1 bd 08 83 9a 3c 56 93 b6 3d
       -0.046526223 -0.08645137 0.018861309 0.08914821
0003f0 9a f8 98 3d f2 16 cb bd 30 f4 77 3d be 73 e0 bd
       0.07469292 -0.09916486 0.06053561 -0.10959576

rn.bias_ih_l0 f4 [256]
000000 98 bf 22 bd 0e bf cd 3d c0 c2 dd 3c 70 3b b3 3c
       -0.0397335 0.100462064 0.027070403 0.021878928
000010 ac 15 b8 3d d0 ac be bd b0 88 a2 3d a0 fb 7e 3d
       0.089885086 -0.09310305 0.07936227 0.062251687
000020 f4 24 54 bd 80 67 b2 bc 84 e9 4e bd 00 09 0e bb
       -0.051793054 -0.021777868 -0.050515667 -0.0021672845
000030 f4 d1 86 bd a0 3d c8 bd 4c af e5 3d 28 1f f9 3c
       -0.06583014 -0.09777379 0.11215076 0.030410364
000040 b2 d9 b1 bd 1e 43 9d bd 90 42 5b 3d 5a 0c f4 3d
       -0.086841 -0.07678817 0.053530276 0.119164184
000050 86 3e 82 bd bc ed a5 3d 38 20 9e 3d 4a 7e d8 3d
       -0.06359582 0.08101985 0.07720989 0.10570963
000060 98 5e 40 3d c8 8e 7e bd 02 98 f5 3d 38 97 8a 3c
       0.04696521 -0.062147886 0.11991884 0.01691781
000070 40 26 3f bd d0 dd c0 bc f8 9c 7b bd 78 66 01 3d
       -0.046667337 -0.023543268 -0.061428994 0.031591862
000080 0c ed 4b bd 14 3e 24 3d d8 21 9a bd c0 7e 88 3b
       -0.049786612 0.040098265 -0.075259864 0.0041655004
000090 70 ea c4 bc b8 da 88 3c 4a e8 eb bd 88 6d 90 3c
       -0.02403757 0.016705856 -0.11518915 0.017630354
0000a0 48 fa 45 3d f2 b8 ce bd d0 36 8d 3d 78 b3 c7 bc
       0.04833439 -0.10093869 0.0689522 -0.02437757
0000b0 44 c6 1f 3d b4 93 78 3d 58 ac 96 bd 4c ef a9 bd
       0.03900744 0.060687736 -0.07357091 -0.082975954
0000c0 20 59 e8 3d 40 2e 01 3d a0 28 ab bd 42 e4 ea bd
       0.11345124 0.031538248 -0.08357358 -0.11469318
0000d0 e0 42 8b bd c6 33 f6 bd 70 d5 45 3c ba 40 c0 3d
       -0.06799865 -0.12021594 0.012074813 0.093873456
0000e0 5a 22 a3 bd 80 fb c2 ba 68 08 43 3d e6 1f 81 bd
       -0.079655364 -0.0014875978 0.04761544 -0.06304912
0000f0 b0 17 b6 bd aa ab b7 bd b0 38 80 bc 58 28 96 bc
       -0.08891237 -0.08968289 -0.01565203 -0.018329784
000100 38 8a b1 bd b4 ff 59 3d b0 29 d7 3d 06 5e f7 bd
       -0.08668941 0.053222373 0.10505998 -0.120784804
000110 68 42 87 3c ce d1 d4 3d a4 69 fa 3d 16 fd d1 bd
       0.016511157 0.103915796 0.122271806 -0.102533504
000120 5c 3f 83 bd 00 ce 7d bd 30 66 25 3c b8 4d b4 3c
       -0.06408569 -0.061964035 0.010095164 0.022009715
000130 36 65 fa bd 40 37 c9 3d 00 90 a7 bd 7c 3c 81 3d
       -0.12226336 0.09824991 -0.08181763 0.063103646
000140 10 b5 3b 3c cc 8c 4d bd 50 9e ce 3d 1c 23 ca bd
       0.011456743 -0.050183102 0.100887895 -0.09869978
000150 78 d9 4e bd 28 d9 0a bd 40 73 78 bc cc 09 13 3d
       -0.050500363 -0.033898503 -0.0151641965 0.035898015
000160 c8 54 51 3d b8 22 90 bd 40 8f aa 3b 92 f9 89 3d
       0.051106244 -0.07037872 0.005205065 0.06737055
000170 10 0a 95 3c f0 50 a1 bc 36 c8 9b bd 18 3b b6 bc
       0.018193275 -0.019691914 -0.076065466 -0.022244975
000180 68 0a d8 bc 5e 00 8e bd ae eb 94 bd 2a e3 fa 3d
       -0.02637215 -0.06933664 -0.07271515 0.12250359
000190 d0 43 c3 bc b0 64 4c bc 34 28 58 3d d8 4e f7 bd
       -0.023836046 -0.012475178 0.052772716 -0.12075585
0001a0 ee d2 f5 3d 00 e7 7f 3c 3c c4 0a bd 3c aa ff 3d
       0.12003122 0.01561904 -0.03387855 0.124836415
0001b0 80 f2 93 3b 98 b3 b9 3c 3e e3 c4 3d 28 19 b6 bd
       0.0045149922 0.022668645 0.096136555 -0.08891517
0001c0 9c 29 43 bd 96 1d 88 bd 1c 12 11 3d 30 6f 81 bd
       -0.047647104 -0.06646268 0.03541766 -0.063200355
0001d0 e6 f8 ff 3d 00 7d fc bb 50 d9 3a bd c4 a7 a3 bd
       0.124986455 -0.007705331 -0.0456174 -0.07990983
0001e0 88 07 91 bd 5a 1d da bd 8c 14 b0 3d 48 31 8b bd
       -0.070815146 -0.106501296 0.08597669 -0.06796509
0001f0 e8 cf cf 3c 12 74 ae bd 1c fa a7 3d 42 16 8d bd
       0.025367692 -0.085182324 0.082020015 -0.06889011
000200 f8 65 28 3d 68 13 55 bd 00 de 6c ba 5a 01 8a 3d
       0.04111287 -0.05202046 -0.0009035766 0.06738539
000210 c8 bc e8 bc 4a d3 be bd b0 d9 ed 3d 8a f4 93 3d
       -0.02841033 -0.09317644 0.11613786 0.072243765
000220 90 35 6f 3c c0 13 7b bc b0 88 a4 bd 00 ea 2d bd
       0.014600173 -0.015324533 -0.080338836 -0.042459488
000230 0e de f9 3d ae 8f f5 3d cc 7e 0c bd 68 81 a1 bc
       0.12200557 0.11990295 -0.03430061 -0.019715026
000240 02 f8 bc bd 3a ae b7 bd b0 ed 20 bd 48 16 13 bd
       -0.09226991 -0.08968778 -0.039289176 -0.03590992
000250 cc bd 94 bd e4 3a 23 bd aa 53 a0 bd 60 f0 a0 bd
       -0.072627634 -0.039851084 -0.07828458 -0.07858348
000260 f8 75 02 bd 84 82 b8 3d 4c aa ad 3d 30 53 0b 3d
       -0.031850785 0.09009269 0.08479747 0.03401488
000270 1c 7e 98 bd 5e 54 cf bd c2 c7 9c 3d 80 e7 bf 3b
       -0.074459285 -0.10123514 0.07655288 0.0058564544
000280 c4 9c 3c bd 2e 00 b2 bd c0 8f 41 3c a0 2a e3 bb
       -0.04604794 -0.086914405 0.011814058 -0.0069325715
000290 d8 70 d2 3c e2 0a fc bd 94 19 0d bd aa 0a fd 3d
       0.025688574 -0.12306763 -0.03444822 0.1235555
0002a0 00 fe 8f 3c 20 0e 2e 3d a6 7e a9 bd 60 df 86 3c
       0.017577171 0.04249394 -0.082761094 0.016463935
0002b0 5c 09 b8 3d a0 fc 1a 3d 64 2e 77 bd a0 f8 e2 3b
       0.0898616 0.03783858 -0.060346976 0.006926611
0002c0 9a b5 a0 3d b0 85 82 bd 1e ce b5 3d ec a6 cc bd
       0.07847138 -0.06373155 0.08877204 -0.09992775
0002d0 c0 ea 62 3c 4c f1 60 3d d0 e9 1e 3d 6e d5 9e 3d
       0.013849914 0.05491762 0.0387972 0.07755552
0002e0 fc 26 5c 3d d0 2c 2b 3c a8 96 4a bd 30 28 f2 3c
       0.053748116 0.010447696 -0.049460083 0.029560179
0002f0 c8 90 ff 3c 04 3c bb 3d 40 8f 59 3d cc 4f 6f bd
       0.031196967 0.091423064 0.05311513 -0.05842571
000300 fe 3e a7 bd dc e7 23 3d 32 b6 80 bd ac 85 c8 3d
       -0.08166312 0.04001604 -0.06284751 0.09791121
000310 80 61 fa bb fc 66 4a 3d 80 0c ac bc 10 00 07 3c
       -0.0076410174 0.04941462 -0.021002054 0.008239761
000320 1a ed ab 3d d8 b2 35 3d 3c f0 08 bd a2 e7 91 bd
       0.08394833 0.04436001 -0.03343223 -0.071242586
000330 6e 38 c9 3d 60 ef 08 3d 66 8c e5 bd d4 2a 6d 3d
       0.09825216 0.03343141 -0.112084195 0.057902172
000340 fa d7 99 bd ce 62 a4 bd b0 6a 87 3c 22 75 f8 3d
       -0.075118974 -0.08026658 0.016530365 0.12131716
000350 b2 6b f2 3d 30 56 e5 3d 80 37 93 3a 54 6f c4 3d
       0.118369475 0.111980796 0.001123175 0.09591547
000360 ae 43 d6 3d d4 50 24 3d e8 89 1b bd 9e f1 c2 bd
       0.104621276 0.040116146 -0.037973315 -0.09518741
000370 9c 0c 9c bd 40 d2 fa bc 54 b9 8f bd 0a 0f e6 bd
       -0.076195925 -0.030617833 -0.070177704 -0.11233337
000380 20 3f e4 3b 58 20 5c bd c8 a4 aa bc 20 cd 9f bb
       0.006965533 -0.053741783 -0.020830527 -0.0048767477
000390 ba 04 f6 bd 3c 1b 1c bd 58 c7 c6 bd 00 ab c2 3d
       -0.1201262 -0.03811191 -0.097059906 0.09505272
0003a0 e8 be 37 bd 60 1b f1 3c 32 04 cf 3d 64 b0 4d 3d
       -0.044859797 0.029431999 0.10108222 0.050217047
0003b0 78 8b f8 bd 38 f0 b3 3c f0 95 8f 3c 68 86 fb 3d
       -0.121359766 0.021965131 0.01752755 0.12281495
0003c0 48 08 8a 3c f6 53 fa bd 5a 7e c8 3d 60 d4 26 bc
       0.016849652 -0.122230455 0.09789725 -0.01018247
0003d0 40 4a 42 3b f8 13 73 bd 50 1c 05 bc d0 de d7 bc
       0.0029646307 -0.059345216 -0.008124426 -0.026351362
0003e0 06 e9 d2 3d 48 f4 c7 bd 7e b8 e9 bd 6a 45 e0 bd
       0.10298352 -0.0976339 -0.11412142 -0.1095074
0003f0 b0 2e f2 bc f8 70 a2 bc 48 32 e1 3d 1c 7b 25 bd
       -0.029563278 -0.019829258 0.109959185 -0.04040061

rn.bias_hh_l0 f4 [256]
000000 0e fe ec 3d 78 6f 71 3d 48 7e e4 3c 3a 5b c0 bd
       0.115718946 0.058944196 0.027892247 -0.093924
000010 b2 38 cb bd a8 fe d7 3d 84 42 df 3d 50 7b da bd
       -0.09922923 0.10546619 0.10901359 -0.10668051
000020 10 78 7f 3d da 24 c7 3d 7c 30 c9 bd e4 e1 b8 3d
       0.06237036 0.09723826 -0.09823701 0.0902746
000030 8e 4d ee bd a6 a0 bb 3d a0 a6 c1 3b d2 26 ab 3d
       -0.11635886 0.09161501 0.005909756 0.08357014
000040 fe 42 8c bd ca 1b ce bd a0 76 df bd c4 e7 a9 bd
       -0.06848715 -0.10063894 -0.10911298 -0.08296159
000050 b4 04 6a 3d 18 5e a0 bd c8 2b 7d 3d b8 0e f2 3c
       0.05713339 -0.07830447 0.06180933 0.029548034
000060 40 a1 b1 3d 18 07 7d 3d 2a 80 b6 3d 3e db b2 bd
       0.08673334 0.061774343 0.08911164 -0.087332234
000070 e2 a5 d9 3d 28 c2 aa bc 18 5d a8 bc e6 43 ee 3d
       0.10627343 -0.020844534 -0.020552203 0.11634044
000080 d2 df a2 3d f0 8b a4 3c 64 1c 24 bd d0 b8 2f bc
       0.079528466 0.020086259 -0.040066138 -0.010725215
000090 b2 88 d6 bd e8 b8 e6 3c e0 30 cc 3c 6c 08 77 3d
       -0.10475291 0.028164342 0.02492565 0.060310766
0000a0 9c 8f ff 3d cc e9 d4 bd 40 1d a5 bb 5c 3f a4 3d
       0.12478563 -0.10396156 -0.0050388873 0.08019897
0000b0 a0 09 3d bd 3e b8 91 3d f0 27 19 bd 98 1b e8 3d
       -0.046151757 0.071152195 -0.037391603 0.11333388
0000c0 a0 36 87 3c 50 38 6d bd 04 1e 6a bd 0a a5 f2 bd
       0.01650554 -0.057915032 -0.05715753 -0.11847885
0000d0 48 c1 de bd 38 ae f0 bd a0 b9 c1 bc 30 ac 1c 3c
       -0.10876709 -0.117519796 -0.023648083 0.009562537
0000e0 38 06 23 bd 00 5c ae 3b 80 9b 29 bb 4a 43 81 3d
       -0.039800853 0.005321026 -0.0025880039 0.063116625
0000f0 d2 01 a6 bd a8 ed bb 3d ec a4 46 3d 14 af e6 bd
       -0.08105816 0.09176189 0.048497126 -0.11263862
000100 58 cd a8 3d 7c b0 3f 3d a8 02 e3 bc c0 47 5f bd
       0.08242291 0.046799168 -0.027711228 -0.054511786
000110 18 c1 c3 3c cc 88 50 bd 8c 11 fa 3d cc ff 8a 3d
       0.023895785 -0.05091171 0.12210378 0.06787071
000120 80 cf fb 3a a8 24 c3 3d 54 bb e3 bd 34 7f 90 bd
       0.001921162 0.09528476 -0.111197144 -0.07055512
000130 7e 86 f8 3d c8 2f b9 bd d8 03 b3 bd 5e 5b 8c 3d
       0.12135027 -0.09042317 -0.087409675 0.068533644
000140 50 d8 8f bc 06 80 f2 bd 0a a9 c2 bd c6 50 d5 3d
       -0.0175592 -0.11840825 -0.09504898 0.10415797
000150 d8 c0 92 bc c0 f2 b2 3d c8 d1 3d 3d 28 72 95 3c
       -0.01791422 0.08737707 0.04634264 0.01824291
000160 98 c8 b6 bd 80 9f 6a 3d 66 94 ff 3d 80 bc 4e 3b
       -0.08924979 0.057281017 0.12479477 0.003154546
000170 4a 58 a5 bd 34 a2 07 bd 08 f0 27 3d 94 79 77 3d
       -0.080734804 -0.033113673 0.041000396 0.06041868
000180 00 d3 be bc 88 51 c7 bd 14 07 65 3d 18 83 aa 3c
       -0.023293972 -0.09732348 0.055914953 0.020814463
000190 d0 0d 1e bc 30 9a 29 3c 4a ad a7 bd 5c 42 6a 3d
       -0.009646848 0.010351703 -0.08187349 0.05719219
0001a0 8e e2 a1 3d 2c c7 3c 3d b0 3b d8 bd 80 8c 0f bd
       0.0790454 0.046088383 -0.105582595 -0.0350461
0001b0 10 e8 12 bd e6 e2 ba 3d e8 81 a5 bc f0 0b 19 bd
       -0.035865843 0.09125309 -0.020203546 -0.0373649
0001c0 3a a7 a6 3d 00 48 41 bd 76 34 c6 bd e8 67 d0 bc
       0.08137365 -0.047187805 -0.09677975 -0.025440171
0001d0 80 ef d4 ba 56 a5 f2 3d be 2a df 3d 18 c4 c2 3d
       -0.0016245693 0.118479416 0.10896824 0.09510058
0001e0 70 4c 3e 3c de 66 bd bd 0e d0 e8 3d be 2d c0 3d
       0.011614904 -0.09248136 0.11367808 0.09383725
0001f0 8c a7 6e bd 80 3c b8 3a 70 49 fd bd a4 61 14 3d
       -0.058265254 0.0014056116 -0.12367523 0.03622593
000200 bc 48 54 bd 8a 80 9b 3d 58 a6 7a bd 20 51 9a 3c
       -0.051827177 0.07592876 -0.061193794 0.018837512
000210 60 6b fc bd 84 84 d3 3d f4 a2 e1 bd 40 db 8b bd
       -0.12325168 0.1032801 -0.11017409 -0.06828928
000220 b4 4b e2 bd ec e9 4e 3d d2 1d 9a bd c0 b1 24 bd
       -0.110495955 0.050516054 -0.07525219 -0.040208578
000230 74 52 23 3d a8 0b 1f bd cc 9b 4c 3d a0 b7 b3 bd
       0.039873555 -0.038829476 0.049953267 -0.08775258
000240 4e d9 a7 3d 80 04 58 3b c0 a7 41 3b 4a d1 d9 bd
       0.081957445 0.0032961667 0.002954945 -0.10635622
000250 9c 43 0d bd fc 95 3b 3d 20 26 5d bd e4 19 65 3d
       -0.034488305 0.045797333 -0.053991437 0.055932894
000260 f0 90 3e 3d a2 b2 ca bd aa 9a ed bd 52 30 cb 3d
       0.046524942 -0.09897353 -0.116017655 0.09921326
000270 04 26 9f bd 00 ba 63 3b f0 10 12 3d 20 a4 fa 3c
       -0.07770923 0.0034748316 0.035660684 0.030595839
000280 80 e2 6b bc b0 d5 e7 bd ae 52 fa 3d 20 40 1e bd
       -0.0143972635 -0.113200545 0.12222801 -0.038635373
000290 f0 9c 3b 3d 80 49 c0 bb 78 76 a2 bd 60 43 c2 bc
       0.045803964 -0.005868137 -0.07932752 -0.023713768
0002a0 08 c8 3d bd f8 aa f6 3d f8 32 a4 3c c2 0e 84 3d
       -0.046333343 0.120443285 0.020043835 0.06448127
0002b0 0e c0 8c 3d 48 78 7d 3d d2 b3 f3 3d 60 d3 c0 3d
       0.06872569 0.061882287 0.118995324 0.094153166
0002c0 40 07 fb 3d a0 35 f5 bd 40 1a 2f bd 3c cf 6c bd
       0.12257242 -0.11973119 -0.042749643 -0.05781482
0002d0 02 ad fe 3d 5a aa 92 3d 5c d4 8d 3d 26 be e2 bd
       0.12435342 0.07161398 0.0692527 -0.11071424
0002e0 20 62 f8 bc d0 e7 91 3d a0 06 f2 bb 0e 78 8e 3d
       -0.030320227 0.07124293 -0.0073860437 0.06956492
0002f0 34 33 54 bd c6 b9 f3 bd 5c dc 77 bd 24 d8 47 bd
       -0.051806644 -0.11900668 -0.060512885 -0.048790112
000300 0a 82 cc 3d 68 b5 af 3c 90 80 62 bc 0e d5 c0 bd
       0.099857405 0.021448806 -0.013824597 -0.09415637
000310 7e 8b 84 3d bc a0 40 3d 44 c5 db 3d 48 22 70 3d
       0.064719185 0.04702829 0.10730985 0.058626443
000320 2a 81 a3 bd f8 4f f1 bc 28 bb c5 3d d0 bc f5 bc
       -0.079836205 -0.029457077 0.09654838 -0.02999726
000330 be 67 f9 bd ce 52 b5 bd fc 9a 14 3d 10 69 6c bd
       -0.121779904 -0.08853684 0.036280617 -0.057717383
000340 24 07 7d 3d 90 d3 51 3c c0 c8 94 3d 50 63 b3 3d
       0.061774388 0.012806788 0.072648525 0.08759177
000350 80 20 50 3c 8c 80 88 bd b8 02 dc bc 6e 20 95 3d
       0.012703061 -0.06665143 -0.026856765 0.07281576
000360 c8 cb 8c bc 28 64 e0 3d b8 4a 1d bd e8 d8 97 bc
       -0.017187014 0.10956603 -0.038401335 -0.018536046
000370 4a 0c 82 bd 5e 9d ff bd 64 80 87 bd 1c ec c1 3d
       -0.0635 -0.12481187 -0.066162854 0.094688624
000380 90 f0 6f bd 20 f8 f9 3b 08 36 15 bd 80 4b db 3d
       -0.058579028 0.0076284558 -0.03642848 0.1070776
000390 ce 5d 8b 3d 80 05 f1 bc d0 69 62 bd 64 54 25 3d
       0.06805001 -0.029421568 -0.055276692 0.040363684
0003a0 d6 36 ea 3d 14 65 ef 3d 6e ba a8 3d 4a 22 d3 bd
       0.114362404 0.11689201 0.08238684 -0.103092745
0003b0 b2 37 8d 3d fc 44 5c 3d ec f2 51 3d 4c 06 97 3d
       0.06895389 0.053776726 0.05125706 0.07374248
0003c0 3c 90 a9 3d fc aa 2e 3d a0 48 8b bb 80 0c c2 3d
       0.08279464 0.042643532 -0.004250601 0.094750404
0003d0 48 67 69 bd 06 eb bc 3d 70 fc c7 bd 14 40 22 bd
       -0.056983262 0.09224515 -0.097649455 -0.03961189
0003e0 e0 de b8 3b 58 84 a2 bd c8 6f bc bc a0 42 30 3c
       0.005641803 -0.07935399 -0.02300252 0.010758072
0003f0 f0 71 84 3c 00 ba d6 3a 22 08 f7 3d 30 58 0b bd
       0.01616761 0.0016382337 0.12062098 -0.03401965

rn.weight_ih_l1 f4 [256, 64]
000000 04 e7 72 3d 16 aa e8 bd 64 49 ed 3d 88 fe a8 bd
       0.059302345 -0.11360566 0.11586264 -0.08251673
000010 e0 25 9c bb 4c e5 50 3d 00 8d 0d bb 12 12 d6 bd
       -0.0047652572 0.050999925 -0.0021598935 -0.104526654
000020 08 87 d6 3d 74 a1 d8 bd 5a ca 82 bd f4 ea c1 bd
       0.10474974 -0.1057767 -0.06386252 -0.09468642
000030 cc 65 b9 bd a0 16 97 bc 80 b1 1c bb 20 b2 2c bc
       -0.09052619 -0.018443406 -0.002390951 -0.010540515
000040 14 6e df bd 90 3a d3 3c 50 33 16 3d 7a 9a bf bd
       -0.109096676 0.02578476 0.03667003 -0.09355636
000050 56 ba df bd ec 14 d0 3d 34 f3 f5 3d 68 8c 85 bd
       -0.10924213 0.101602405 0.12009278 -0.06520921
000060 70 1e f1 3c e0 6f 73 3c 32 96 c2 bd 0a 67 a8 3d
       0.029433459 0.014858216 -0.09501304 0.08222778
000070 f0 28 83 bc e6 74 c3 bd 40 09 8f 3c 60 9a 7d bd
       -0.016010731 -0.09543781 0.017460465 -0.0619148
000080 fe 17 fd bd d0 4f f1 3d 10 a9 f7 bc 00 b0 6f 3c
       -0.12358092 0.11782801 -0.030231982 0.014629364
000090 f4 45 b5 bd 38 8a 06 3d 34 07 d7 bd aa 88 cd bd
       -0.08851233 0.03284666 -0.10499421 -0.10035832
0000a0 22 73 c9 3d 00 8a 91 ba 24 96 94 bd 80 c4 cb bc
       0.09836413 -0.0011103749 -0.072551996 -0.024873972
0000b0 04 0e af 3d 02 9c d8 3d 70 82 3d 3c 38 9b bf 3c
       0.08547595 0.10576631 0.011566743 0.023389444
0000c0 fc ee 37 3d 68 94 e5 bd 14 e6 20 3d 40 2a 4b bb
       0.044905648 -0.11209947 0.03928192 -0.0031000525
0000d0 42 af e0 3d 20 b9 85 bd dc 06 7d 3d 7e 6c bb 3d
       0.10970928 -0.065294504 0.06177412 0.091515526
0000e0 70 05 4c bc cc 6e 3c bd 48 0b b0 3c f0 c6 0b bd
       -0.012452468 -0.0460041 0.021489754 -0.03412527
0000f0 ba b2 84 3d 70 c8 83 3c b4 76 4c bd c0 92 39 3c
       0.06479402 0.016086787 -0.04991789 0.011326492
000100 56 24 c2 bd d4 57 02 bd 98 05 69 bd 68 8d 85 bc
       -0.09479587 -0.03182204 -0.0568901 -0.01630278
000110 48 90 a1 3c 8c ec dc 3d 62 c7 c0 3d 18 f8 0d 3d
       0.019722119 0.10787305 0.09413029 0.03466043
000120 90 55 91 bd a0 f8 ec bd d4 95 71 3d b4 92 3a bd
       -0.07096398 -0.11570859 0.058980778 -0.045550063
000130 4e e9 f7 3d 0a 60 fd 3d a6 85 c8 3d b2 c6 b0 bd
       0.12105046 0.123718336 0.097911164 -0.08631648
000140 7c 0c 85 3d e2 ab f8 bd c0 6f fd bb 68 ec 62 3d
       0.06496522 -0.12142159 -0.007734269 0.055401236
000150 c8 8e 9a bd 24 c3 fa 3d 90 70 94 3d ce 62 b3 bd
       -0.075467646 0.12244251 0.07248032 -0.0875908
000160 80 85 08 bd c2 5b cb bd d8 1d ad bc 98 2e 66 bd
       -0.03333044 -0.09929611 -0.021132395 -0.05619678
000170 e0 1b 06 bc d0 14 f6 3d 48 49 f8 3c e0 46 f5 3d
       -0.008185357 0.120156884 0.03030838 0.11976409
000180 50 9b 20 bc 00 af 98 ba 24 e8 19 3d 90 51 68 3d
       -0.009802654 -0.0011648834 0.037574902 0.05671841
000190 b6 48 cc bd a8 74 ba 3c 80 0d ac bd f8 52 3e 3d
       -0.09974806 0.022760704 -0.084010124 0.046465844
0001a0 30 14 d9 3d 64 8d a3 bd 34 7d 68 3d 60 00 4e bc
       0.105995536 -0.079859525 0.056760028 -0.012573332
0001b0 24 9d 84 bd a4 0b 8d bd 6a 92 de bd 40 dd 7f bc
       -0.06475285 -0.06886986 -0.1086777 -0.015616715
0001c0 94 97 e7 3d 2c 38 ac bd d8 37 e9 3c ac ca fb bd
       0.11308208 -0.084091514 0.028469011 -0.12294516
0001d0 52 2b 91 bd f6 c2 95 3d 9a d5 cf bd e0 11 ba bb
       -0.07088341 0.073125765 -0.10148163 -0.0056784004
0001e0 c4 2b 00 bd 04 19 40 bd 44 94 7e bd 5a fa b7 bd
       -0.03129174 -0.046898857 -0.062153116 -0.08983298
0001f0 14 6d c4 3d 58 27 dd 3c b8 aa ef bc bc bf 3d bd
       0.095911175 0.0269963 -0.02925621 -0.04632543
000200 42 a7 b3 bd 60 3a 7f bd 28 04 ce 3c 6c d2 77 3d
       -0.08772136 -0.06231153 0.025148466 0.06050341
000210 6c 88 43 3d e0 d3 ce bb 2a a5 e9 3d 46 9e cd bd
       0.047737524 -0.0063118786 0.11408456 -0.10039954
000220 34 1f ad bd 30 03 4d 3c a0 e4 ea bb 94 ea 93 3d
       -0.08453217 0.012512967 -0.0071683675 0.072224766
000230 b8 fc b4 bd f8 e5 80 bc 90 18 2a bc 28 d2 8f 3c
       -0.08837265 -0.015734658 -0.010381833 0.017556265
000240 80 d2 2f 3b d8 e2 f6 3d ac f9 ae 3d a4 9b 27 3d
       0.0026828349 0.12054986 0.08543715 0.040919915
000250 c0 a3 f3 bd 30 0f ba bc 40 03 e1 bd 68 f6 84 bc
       -0.11896467 -0.02271232 -0.10986948 -0.016230777
000260 58 42 9a 3d b8 7f 8f 3c 28 bd c4 3c a8 cf 96 3c
       0.07532185 0.017516956 0.024015978 0.018409565
000270 f8 92 77 bd 58 39 a8 3d 6c 4f 53 bd da dd 97 bd
       -0.060442895 0.082140625 -0.051589414 -0.07415362
000280 40 c4 f7 bb 78 b3 f9 bd ee 42 e8 3d 50 d9 ec bd
       -0.0075612366 -0.12192434 0.11340891 -0.115648866
000290 10 1f 85 3c b8 be c7 3c 22 c0 ed 3d 22 88 dd 3d
       0.016250163 0.024382934 0.11608912 0.10816981
0002a0 70 45 af bc 80 70 a7 bb 90 95 8c bc b8 d1 f2 3c
       -0.021395415 -0.0051098466 -0.01716116 0.029641017
0002b0 20 61 a3 3c c8 19 c9 3d b0 d4 4c 3d 8a b4 9c bd
       0.019943774 0.098193705 0.050007522 -0.076516226
0002c0 20 2b 82 bb ac 44 4b 3d 4a 57 f8 3d d4 1f 7d bd
       -0.003972426 0.049626037 0.12126024 -0.06179793
0002d0 4e e1 9e 3d 8c 65 60 3d 84 a4 70 bd 38 f9 3d 3d
       0.07757817 0.054784343 -0.058750644 0.04638025
0002e0 5a b5 cb bd e0 46 0d 3d ee 1e 94 3d 62 ea b3 3d
       -0.099466994 0.03449142 0.07232462 0.08784939
0002f0 58 93 cc 3c 90 b8 4d 3d 0c d4 83 3d a4 c2 aa bd
       0.024972603 0.05022484 0.06436929 -0.08337906
000300 a0 ab 88 bc aa ea ac 3d 6c 32 9a 3d 00 25 2e bd
       -0.0166834 0.08443196 0.075291485 -0.042515755
000310 68 c6 25 3d 04 a9 12 bd 54 16 e3 3d 30 ef 0c bc
       0.040472418 -0.035805717 0.11088243 -0.008601949
000320 e0 f0 ee bc 80 07 c8 3d f8 41 9e 3d b8 32 81 3d
       -0.029167593 0.097670555 0.07727426 0.06308502
000330 f0 8e d3 3d 1e f6 85 3d a0 47 87 bb 40 8a 52 3d
       0.103299975 0.06541084 -0.0041284114 0.051401377
000340 44 bd b3 3d 36 9b f0 bd 30 36 85 bc 7c 61 84 bd
       0.08776334 -0.11748354 -0.01626119 -0.06463906
000350 26 3e d0 bd 74 cb 03 3d 54 47 71 bd e8 c5 c5 3c
       -0.10168104 0.03217645 -0.058905914 0.02414222
000360 90 fc ac bc f0 1e 67 bd 48 e3 ee bd e0 9a e1 3d
       -0.021116525 -0.05642599 -0.11664444 0.11015868
000370 c8 f9 bf bd 70 53 b0 3d e8 6b 1e 3d 04 f2 ea 3d
       -0.09373814 0.086096644 0.038677126 0.11471942
000380 b2 67 80 3d 10 78 85 3d 04 46 88 bd 74 79 db 3d
       0.06269778 0.06517041 -0.066539794 0.10716525
000390 d4 00 12 bd c2 ac 90 3d 58 8d 2e 3d c4 7d a9 3d
       -0.03564532 0.07064201 0.042615265 0.08275941
0003a0 f4 14 17 bd 40 1c a4 bd 18 16 f4 3d 60 d2 8c bb
       -0.036885217 -0.08013201 0.119182765 -0.0042975396
0003b0 8c 8c ca bd 38 e5 da 3c b8 d5 90 bd 40 2f 93 bb
       -0.098900884 0.026720628 -0.070720136 -0.0044917166
0003c0 30 4b aa 3d c8 66 22 bd ae 6a 91 bd a0 03 a3 3d
       0.08315122 -0.0396488 -0.07100426 0.07959676
0003d0 5c ca 9c 3d e0 3b b0 3d a0 ed 63 3c 74 18 a9 bd
       0.076557845 0.0860517 0.013911635 -0.08256617
0003e0 e6 cd d3 3d dc c7 c3 bd bc c4 7e 3d 58 43 87 3d
       0.103420064 -0.095596045 0.06219934 0.06604642
0003f0 e2 66 c0 3d 60 a7 a6 3d d0 ee a8 3d 40 ed a0 bd
       0.09394623 0.08137393 0.08248675 -0.07857752
