cache/demo/offline/f1/score_model.pt (torch, 226483 bytes, 13 tensors)

base f4 [3]
000000 ec f0 46 c3 00 00 00 00 00 00 00 00
       -198.9411 0.0 0.0

ff.0.weight f4 [64, 67]
000000 00 00 00 00 00 00 00 00 00 00 00 00 00 00 00 00
       0.0 0.0 0.0 0.0
000010 00 00 00 00 00 00 00 00 00 00 00 00 00 00 00 00
       0.0 0.0 0.0 0.0
000020 00 00 00 00 00 00 00 00 00 00 00 00 00 00 00 00
       0.0 0.0 0.0 0.0
000030 00 00 00 00 00 00 00 00 00 00 00 00 00 00 00 00
       0.0 0.0 0.0 0.0
000040 00 00 00 00 00 00 00 00 00 00 00 00 00 00 00 00
       0.0 0.0 0.0 0.0
000050 00 00 00 00 00 00 00 00 00 00 00 00 00 00 00 00
       0.0 0.0 0.0 0.0
000060 00 00 00 00 00 00 00 00 00 00 00 00 00 00 00 00
       0.0 0.0 0.0 0.0
000070 00 00 00 00 00 00 00 00 00 00 00 00 00 00 00 00
       0.0 0.0 0.0 0.0
000080 00 00 00 00 00 00 00 00 00 00 00 00 00 00 00 00
       0.0 0.0 0.0 0.0
000090 00 00 00 00 00 00 00 00 00 00 00 00 00 00 00 00
       0.0 0.0 0.0 0.0
0000a0 00 00 00 00 00 00 00 00 00 00 00 00 00 00 00 00
       0.0 0.0 0.0 0.0
0000b0 00 00 00 00 00 00 00 00 00 00 00 00 00 00 00 00
       0.0 0.0 0.0 0.0
0000c0 00 00 00 00 00 00 00 00 00 00 00 00 00 00 00 00
       0.0 0.0 0.0 0.0
0000d0 00 00 00 00 00 00 00 00 00 00 00 00 00 00 00 00
       0.0 0.0 0.0 0.0
0000e0 00 00 00 00 00 00 00 00 00 00 00 00 00 00 00 00
       0.0 0.0 0.0 0.0
0000f0 00 00 00 00 00 00 00 00 00 00 00 00 00 00 00 00
       0.0 0.0 0.0 0.0
000100 00 00 00 00 00 00 00 00 00 00 00 00 00 00 00 00
       0.0 0.0 0.0 0.0
000110 00 00 00 00 00 00 00 00 00 00 00 00 00 00 00 00
       0.0 0.0 0.0 0.0
000120 00 00 00 00 00 00 00 00 00 00 00 00 00 00 00 00
       0.0 0.0 0.0 0.0
000130 00 00 00 00 00 00 00 00 00 00 00 00 00 00 00 00
       0.0 0.0 0.0 0.0
000140 00 00 00 00 00 00 00 00 00 00 00 00 00 00 00 00
       0.0 0.0 0.0 0.0
000150 00 00 00 00 00 00 00 00 00 00 00 00 00 00 00 00
       0.0 0.0 0.0 0.0
000160 00 00 00 00 00 00 00 00 00 00 00 00 00 00 00 00
       0.0 0.0 0.0 0.0
000170 00 00 00 00 00 00 00 00 00 00 00 00 00 00 00 00
       0.0 0.0 0.0 0.0
000180 00 00 00 00 00 00 00 00 00 00 00 00 00 00 00 00
       0.0 0.0 0.0 0.0
000190 00 00 00 00 00 00 00 00 00 00 00 00 00 00 00 00
       0.0 0.0 0.0 0.0
0001a0 00 00 00 00 00 00 00 00 00 00 00 00 00 00 00 00
       0.0 0.0 0.0 0.0
0001b0 00 00 00 00 00 00 00 00 00 00 00 00 00 00 00 00
       0.0 0.0 0.0 0.0
0001c0 00 00 00 00 00 00 00 00 00 00 00 00 00 00 00 00
       0.0 0.0 0.0 0.0
0001d0 00 00 00 00 00 00 00 00 00 00 00 00 00 00 00 00
       0.0 0.0 0.0 0.0
0001e0 00 00 00 00 00 00 00 00 00 00 00 00 00 00 00 00
       0.0 0.0 0.0 0.0
0001f0 00 00 00 00 00 00 00 00 00 00 00 00 00 00 00 00
       0.0 0.0 0.0 0.0
000200 00 00 00 00 00 00 00 00 00 00 00 00 00 00 00 00
       0.0 0.0 0.0 0.0
000210 00 00 00 00 00 00 00 00 00 00 00 00 00 00 00 00
       0.0 0.0 0.0 0.0
000220 00 00 00 00 00 00 00 00 00 00 00 00 00 00 00 00
       0.0 0.0 0.0 0.0
000230 00 00 00 00 00 00 00 00 00 00 00 00 00 00 00 00
       0.0 0.0 0.0 0.0
000240 00 00 00 00 00 00 00 00 00 00 00 00 00 00 00 00
       0.0 0.0 0.0 0.0
000250 00 00 00 00 00 00 00 00 00 00 00 00 00 00 00 00
       0.0 0.0 0.0 0.0
000260 00 00 00 00 00 00 00 00 00 00 00 00 00 00 00 00
       0.0 0.0 0.0 0.0
000270 00 00 00 00 00 00 00 00 00 00 00 00 00 00 00 00
       0.0 0.0 0.0 0.0
000280 00 00 00 00 00 00 00 00 00 00 00 00 00 00 00 00
       0.0 0.0 0.0 0.0
000290 00 00 00 00 00 00 00 00 00 00 00 00 00 00 00 00
       0.0 0.0 0.0 0.0
0002a0 00 00 00 00 00 00 00 00 00 00 00 00 00 00 00 00
       0.0 0.0 0.0 0.0
0002b0 00 00 00 00 00 00 00 00 00 00 00 00 00 00 00 00
       0.0 0.0 0.0 0.0
0002c0 00 00 00 00 00 00 00 00 00 00 00 00 00 00 00 00
       0.0 0.0 0.0 0.0
0002d0 00 00 00 00 00 00 00 00 00 00 00 00 00 00 00 00
       0.0 0.0 0.0 0.0
0002e0 00 00 00 00 00 00 00 00 00 00 00 00 00 00 00 00
       0.0 0.0 0.0 0.0
0002f0 00 00 00 00 00 00 00 00 00 00 00 00 00 00 00 00
       0.0 0.0 0.0 0.0
000300 00 00 00 00 00 00 00 00 00 00 00 00 00 00 00 00
       0.0 0.0 0.0 0.0
000310 00 00 00 00 00 00 00 00 00 00 00 00 00 00 00 00
       0.0 0.0 0.0 0.0
000320 00 00 00 00 00 00 00 00 00 00 00 00 00 00 00 00
       0.0 0.0 0.0 0.0
000330 00 00 00 00 00 00 00 00 00 00 00 00 00 00 00 00
       0.0 0.0 0.0 0.0
000340 00 00 00 00 00 00 00 00 00 00 00 00 00 00 00 00
       0.0 0.0 0.0 0.0
000350 00 00 00 00 00 00 00 00 00 00 00 00 00 00 00 00
       0.0 0.0 0.0 0.0
000360 00 00 00 00 00 00 00 00 00 00 00 00 00 00 00 00
       0.0 0.0 0.0 0.0
000370 00 00 00 00 00 00 00 00 00 00 00 00 00 00 00 00
       0.0 0.0 0.0 0.0
000380 00 00 00 00 00 00 00 00 00 00 00 00 00 00 00 00
       0.0 0.0 0.0 0.0
000390 00 00 00 00 00 00 00 00 00 00 00 00 00 00 00 00
       0.0 0.0 0.0 0.0
0003a0 00 00 00 00 00 00 00 00 00 00 00 00 00 00 00 00
       0.0 0.0 0.0 0.0
0003b0 00 00 00 00 00 00 00 00 00 00 00 00 00 00 00 00
       0.0 0.0 0.0 0.0
0003c0 00 00 00 00 00 00 00 00 00 00 00 00 00 00 00 00
       0.0 0.0 0.0 0.0
0003d0 00 00 00 00 00 00 00 00 00 00 00 00 00 00 00 00
       0.0 0.0 0.0 0.0
0003e0 00 00 00 00 00 00 00 00 00 00 00 00 00 00 00 00
       0.0 0.0 0.0 0.0
0003f0 00 00 00 00 00 00 00 00 00 00 00 00 00 00 00 00
       0.0 0.0 0.0 0.0

ff.0.bias f4 [64]
000000 00 00 00 00 00 00 00 00 00 00 00 00 00 00 00 00
       0.0 0.0 0.0 0.0
000010 00 00 00 00 00 00 00 00 00 00 00 00 00 00 00 00
       0.0 0.0 0.0 0.0
000020 00 00 00 00 00 00 00 00 00 00 00 00 00 00 00 00
       0.0 0.0 0.0 0.0
000030 00 00 00 00 00 00 00 00 00 00 00 00 00 00 00 00
       0.0 0.0 0.0 0.0
000040 00 00 00 00 00 00 00 00 00 00 00 00 00 00 00 00
       0.0 0.0 0.0 0.0
000050 00 00 00 00 00 00 00 00 00 00 00 00 00 00 00 00
       0.0 0.0 0.0 0.0
000060 00 00 00 00 00 00 00 00 00 00 00 00 00 00 00 00
       0.0 0.0 0.0 0.0
000070 00 00 00 00 00 00 00 00 00 00 00 00 00 00 00 00
       0.0 0.0 0.0 0.0
000080 00 00 00 00 00 00 00 00 00 00 00 00 00 00 00 00
       0.0 0.0 0.0 0.0
000090 00 00 00 00 00 00 00 00 00 00 00 00 00 00 00 00
       0.0 0.0 0.0 0.0
0000a0 00 00 00 00 00 00 00 00 00 00 00 00 00 00 00 00
       0.0 0.0 0.0 0.0
0000b0 00 00 00 00 00 00 00 00 00 00 00 00 00 00 00 00
       0.0 0.0 0.0 0.0
0000c0 00 00 00 00 00 00 00 00 00 00 00 00 00 00 00 00
       0.0 0.0 0.0 0.0
0000d0 00 00 00 00 00 00 00 00 00 00 00 00 00 00 00 00
       0.0 0.0 0.0 0.0
0000e0 00 00 00 00 00 00 00 00 00 00 00 00 00 00 00 00
       0.0 0.0 0.0 0.0
0000f0 00 00 00 00 00 00 00 00 00 00 00 00 00 00 00 00
       0.0 0.0 0.0 0.0

ff.2.weight f4 [3, 64]
000000 00 00 00 00 00 00 00 00 00 00 00 00 00 00 00 00
       0.0 0.0 0.0 0.0
000010 00 00 00 00 00 00 00 00 00 00 00 00 00 00 00 00
       0.0 0.0 0.0 0.0
000020 00 00 00 00 00 00 00 00 00 00 00 00 00 00 00 00
       0.0 0.0 0.0 0.0
000030 00 00 00 00 00 00 00 00 00 00 00 00 00 00 00 00
       0.0 0.0 0.0 0.0
000040 00 00 00 00 00 00 00 00 00 00 00 00 00 00 00 00
       0.0 0.0 0.0 0.0
000050 00 00 00 00 00 00 00 00 00 00 00 00 00 00 00 00
       0.0 0.0 0.0 0.0
000060 00 00 00 00 00 00 00 00 00 00 00 00 00 00 00 00
       0.0 0.0 0.0 0.0
000070 00 00 00 00 00 00 00 00 00 00 00 00 00 00 00 00
       0.0 0.0 0.0 0.0
000080 00 00 00 00 00 00 00 00 00 00 00 00 00 00 00 00
       0.0 0.0 0.0 0.0
000090 00 00 00 00 00 00 00 00 00 00 00 00 00 00 00 00
       0.0 0.0 0.0 0.0
0000a0 00 00 00 00 00 00 00 00 00 00 00 00 00 00 00 00
       0.0 0.0 0.0 0.0
0000b0 00 00 00 00 00 00 00 00 00 00 00 00 00 00 00 00
       0.0 0.0 0.0 0.0
0000c0 00 00 00 00 00 00 00 00 00 00 00 00 00 00 00 00
       0.0 0.0 0.0 0.0
0000d0 00 00 00 00 00 00 00 00 00 00 00 00 00 00 00 00
       0.0 0.0 0.0 0.0
0000e0 00 00 00 00 00 00 00 00 00 00 00 00 00 00 00 00
       0.0 0.0 0.0 0.0
0000f0 00 00 00 00 00 00 00 00 00 00 00 00 00 00 00 00
       0.0 0.0 0.0 0.0
000100 00 00 00 00 00 00 00 00 00 00 00 00 00 00 00 00
       0.0 0.0 0.0 0.0
000110 00 00 00 00 00 00 00 00 00 00 00 00 00 00 00 00
       0.0 0.0 0.0 0.0
000120 00 00 00 00 00 00 00 00 00 00 00 00 00 00 00 00
       0.0 0.0 0.0 0.0
000130 00 00 00 00 00 00 00 00 00 00 00 00 00 00 00 00
       0.0 0.0 0.0 0.0
000140 00 00 00 00 00 00 00 00 00 00 00 00 00 00 00 00
       0.0 0.0 0.0 0.0
000150 00 00 00 00 00 00 00 00 00 00 00 00 00 00 00 00
       0.0 0.0 0.0 0.0
000160 00 00 00 00 00 00 00 00 00 00 00 00 00 00 00 00
       0.0 0.0 0.0 0.0
000170 00 00 00 00 00 00 00 00 00 00 00 00 00 00 00 00
       0.0 0.0 0.0 0.0
000180 00 00 00 00 00 00 00 00 00 00 00 00 00 00 00 00
       0.0 0.0 0.0 0.0
000190 00 00 00 00 00 00 00 00 00 00 00 00 00 00 00 00
       0.0 0.0 0.0 0.0
0001a0 00 00 00 00 00 00 00 00 00 00 00 00 00 00 00 00
       0.0 0.0 0.0 0.0
0001b0 00 00 00 00 00 00 00 00 00 00 00 00 00 00 00 00
       0.0 0.0 0.0 0.0
0001c0 00 00 00 00 00 00 00 00 00 00 00 00 00 00 00 00
       0.0 0.0 0.0 0.0
0001d0 00 00 00 00 00 00 00 00 00 00 00 00 00 00 00 00
       0.0 0.0 0.0 0.0
0001e0 00 00 00 00 00 00 00 00 00 00 00 00 00 00 00 00
       0.0 0.0 0.0 0.0
0001f0 00 00 00 00 00 00 00 00 00 00 00 00 00 00 00 00
       0.0 0.0 0.0 0.0
000200 00 00 00 00 00 00 00 00 00 00 00 00 00 00 00 00
       0.0 0.0 0.0 0.0
000210 00 00 00 00 00 00 00 00 00 00 00 00 00 00 00 00
       0.0 0.0 0.0 0.0
000220 00 00 00 00 00 00 00 00 00 00 00 00 00 00 00 00
       0.0 0.0 0.0 0.0
000230 00 00 00 00 00 00 00 00 00 00 00 00 00 00 00 00
       0.0 0.0 0.0 0.0
000240 00 00 00 00 00 00 00 00 00 00 00 00 00 00 00 00
       0.0 0.0 0.0 0.0
000250 00 00 00 00 00 00 00 00 00 00 00 00 00 00 00 00
       0.0 0.0 0.0 0.0
000260 00 00 00 00 00 00 00 00 00 00 00 00 00 00 00 00
       0.0 0.0 0.0 0.0
000270 00 00 00 00 00 00 00 00 00 00 00 00 00 00 00 00
       0.0 0.0 0.0 0.0
000280 00 00 00 00 00 00 00 00 00 00 00 00 00 00 00 00
       0.0 0.0 0.0 0.0
000290 00 00 00 00 00 00 00 00 00 00 00 00 00 00 00 00
       0.0 0.0 0.0 0.0
0002a0 00 00 00 00 00 00 00 00 00 00 00 00 00 00 00 00
       0.0 0.0 0.0 0.0
0002b0 00 00 00 00 00 00 00 00 00 00 00 00 00 00 00 00
       0.0 0.0 0.0 0.0
0002c0 00 00 00 00 00 00 00 00 00 00 00 00 00 00 00 00
       0.0 0.0 0.0 0.0
0002d0 00 00 00 00 00 00 00 00 00 00 00 00 00 00 00 00
       0.0 0.0 0.0 0.0
0002e0 00 00 00 00 00 00 00 00 00 00 00 00 00 00 00 00
       0.0 0.0 0.0 0.0
0002f0 00 00 00 00 00 00 00 00 00 00 00 00 00 00 00 00
       0.0 0.0 0.0 0.0

ff.2.bias f4 [3]
000000 00 00 00 00 00 00 00 00 00 00 00 00
       0.0 0.0 0.0

rn.weight_ih_l0 f4 [256, 3]
000000 d6 4c f1 bd 58 9e 29 bd 58 9f d2 3d c0 16 04 bc
       -0.117822334 -0.041410774 0.10284299 -0.008062065
000010 7c ec d4 3d 44 19 fa 3d f8 24 b7 bc 54 2b 70 bd
       0.10396668 0.1221185 -0.022356495 -0.05863507
000020 d0 64 00 3d 9a 92 f4 3d a6 38 fd bd 9c 90 1d 3d
       0.031346142 0.119420245 -0.123643205 0.03846799
000030 00 af 39 ba f0 13 d8 bc 5e 53 bb 3d 30 87 e5 bc
       -0.0007083267 -0.026376694 0.091467604 -0.028018564
000040 e0 a6 a6 3d 40 92 d3 3c 24 e3 da 3d 90 3d a5 bd
       0.08137298 0.025826573 0.10687855 -0.08068383
000050 bc 8f cf bd f8 71 7a bd 58 a9 a8 3d f0 50 0c bd
       -0.10134837 -0.061143845 0.08235425 -0.034256876
000060 98 c9 de bc a0 f1 31 bc aa 11 b2 3d 74 0e e2 bd
       -0.027195737 -0.010860831 0.086947754 -0.11037913
000070 78 c2 48 3d 24 12 f7 3d 3c cb b8 3d 08 a7 8f bd
       0.049013585 0.12064007 0.09023139 -0.070142806
000080 f8 92 f0 bc 60 15 d5 3b b8 76 02 bd f0 87 05 3d
       -0.029366955 0.0065027922 -0.0318515 0.032600343
000090 e0 ef 2d 3c 22 43 eb 3d 04 a3 df 3d d4 1e 79 3d
       0.010616273 0.11487414 0.10919765 0.060820416
0000a0 78 0d ba bd 04 7f 63 bd d8 87 26 bd 42 b5 db bd
       -0.090846 -0.055541053 -0.040656894 -0.107279316
0000b0 8c 7d 60 bd e0 8e f9 3d 8c 76 b1 bd 78 5b 5a bd
       -0.05480723 0.12185454 -0.08665189 -0.053309888
0000c0 32 a3 ab 3d dc e9 45 3d 58 06 cc 3c b4 af 6d bd
       0.083807364 0.04831873 0.024905369 -0.05802889
0000d0 94 a2 6a 3d 50 31 dc 3d 08 db e0 3d b8 09 b8 3c
       0.057283953 0.10751593 0.10979277 0.022465572
0000e0 8e 97 98 bd 3e db 9c bd 7c cc 88 3d 94 de 4c bd
       -0.07450782 -0.07659005 0.06679627 -0.050016955
0000f0 d0 af e9 bd 58 c2 1b 3d 34 5b b8 3d e0 e0 ae 3c
       -0.11410487 0.038027138 0.090017706 0.021347463
000100 3e 0d f1 bd d8 7a 8b bd 20 7a 33 bd 80 47 6b bb
       -0.11770104 -0.0681054 -0.04381764 -0.0035900772
000110 8c 3b a6 3d 42 bc aa bd e0 b5 fe 3b ce 9f c8 3d
       0.081168264 -0.083366886 0.007773146 0.09796105
000120 3c 73 db bd e2 af a0 3d 9e c4 b7 bd 48 60 90 3c
       -0.107153386 0.07846047 -0.089730486 0.017624035
000130 d4 59 dc 3d d4 e2 51 3d 30 a1 02 3c b2 79 f0 bd
       0.10759321 0.05124171 0.007973 -0.117419615
000140 ec 25 4a bd 3a a4 a1 bd bc 79 fb 3d f2 4b f6 bd
       -0.04935257 -0.07892652 0.12279078 -0.12026204
000150 94 e8 d2 3d f2 ca e2 bd 4c 1e 86 3d 4a 2c 82 bd
       0.10298267 -0.11073865 0.065487474 -0.06356104
000160 94 2c 6b 3d c2 83 ef 3d ac 01 e0 bd 60 9a 5d bd
       0.05741556 0.11695053 -0.10937819 -0.0541023
000170 44 aa 9f 3d 88 30 b6 3d 3c c6 87 3d ca 26 9f 3d
       0.077961475 0.08895975 0.06629607 0.0777107
000180 ac 20 1e 3d bc e3 f1 3d 2a 39 f4 3d 80 de ea bd
       0.038605377 0.11811015 0.11924966 -0.1146822
000190 64 bc df bd 40 14 48 bd a0 88 c5 3d 16 cd c5 3d
       -0.109246045 -0.048847437 0.096452 0.09658258
0001a0 e0 86 a0 3b fe c7 b9 3d 1c 8f 81 bd 02 91 d5 3d
       0.004898891 0.090713486 -0.06326124 0.10428049
0001b0 78 6f c1 bc ac 7d 01 3d a8 e8 b2 3c 7c 95 a1 bd
       -0.023612723 0.03161399 0.021839455 -0.0788984
0001c0 9a 28 dd bd 02 75 a9 bd 7c 3e f9 3d c8 1d e4 bc
       -0.1079876 -0.082742706 0.12170121 -0.027846232
0001d0 c0 25 13 bd a2 28 af 3d 32 a2 bf bd be 37 fd 3d
       -0.035924673 0.08552672 -0.09357108 0.123641476
0001e0 a0 2c fd bd f0 d7 3b 3c f0 4a 86 3d d4 e5 22 3d
       -0.12362027 0.011465058 0.06557262 0.039769962
0001f0 ca b8 b9 bd fc 37 e5 bd 0c 23 31 bd 70 3b 39 bc
       -0.09068449 -0.11192319 -0.043246314 -0.011305675
000200 92 2e af bd 60 72 f3 3c 78 fa e0 3c 58 af 23 3d
       -0.085538045 0.029717624 0.027463183 0.039962143
000210 80 7a 9c bc 5c 2b 9c bd aa 25 ae bd dc f0 07 bd
       -0.019101381 -0.07625458 -0.085032776 -0.033188686
000220 60 9b 78 3d 06 5b 9a bd 14 ed e0 bd 98 4c c3 bc
       0.060695052 -0.075368926 -0.10982719 -0.023840234
000230 10 6e d2 bd ec e2 8d 3d f0 8c ed bd 42 c9 a8 3d
       -0.10274899 0.069280475 -0.11599147 0.08241512
000240 e0 e5 a0 bd 10 bc be 3d c0 7b 15 3d 2a c1 e1 3d
       -0.07856345 0.09313214 0.03649497 0.11023171
000250 e6 b9 f2 3d 54 09 b1 3d 26 0a d0 3d f0 7f 97 bc
       0.118518636 0.08644357 0.10158186 -0.018493623
000260 e2 64 87 bd 38 70 f9 3d 98 61 6b 3d f4 6b ac 3d
       -0.06611039 0.12179607 0.05746612 0.08419028
000270 c0 67 e0 3b cc 43 e4 3d d4 e6 88 3d 80 e9 fd bd
       0.0068483055 0.11145744 0.06684652 -0.12398052
000280 ae 4c 8b bd e2 a7 8e 3d 40 06 a8 3b 06 e8 94 bd
       -0.06801735 0.06965615 0.005127698 -0.072708175
000290 98 65 ba bc f0 6a 3a bd 60 3f aa bb bc a9 70 bd
       -0.022753522 -0.04551214 -0.005195543 -0.05875562
0002a0 c0 a9 29 3b 42 cd b4 3d e0 cf dd bb e8 33 ff 3d
       0.0025888532 0.08828212 -0.0067691654 0.12461072
0002b0 9e 6e 93 bd d2 3e b7 bd d0 15 4a 3d de 02 95 bd
       -0.07198833 -0.08947529 0.04933721 -0.072759375
0002c0 e8 2a 2c 3d 62 e6 ea bd 4c 69 b4 3d 6c 9a b1 3d
       0.042033106 -0.11469723 0.08809146 0.08672032
0002d0 8e 98 e9 3d 18 2b 95 3c 28 cc a5 bc 30 1c 3b bd
       0.114060506 0.018209025 -0.02023895 -0.04568118
0002e0 38 27 6d 3d 80 13 b7 3b 4c f1 c7 3d 10 a8 a6 3c
       0.05789873 0.0055870414 0.097628206 0.02034381
0002f0 44 f0 82 bd 5a e2 bb 3d 30 0a 1f 3d 26 aa e4 bd
       -0.06393483 0.091740325 0.038828075 -0.11165266
000300 00 8b 54 ba ec f8 88 bd 08 d4 98 bc ec 2c fe bd
       -0.0008107871 -0.06688103 -0.018655792 -0.12410912
000310 30 19 29 bc e6 83 fa bd 80 68 09 3d a2 44 fb 3d
       -0.010320947 -0.12232189 0.033546925 0.1226895
000320 36 50 cd 3d 0c 9a 9d bd 3c b5 9b bd 96 83 c3 3d
       0.10025065 -0.07695398 -0.07602927 0.095465824
000330 0c c6 c7 3d 8a 9d af 3d c0 4e 55 3d 0c f4 e4 bd
       0.09754571 0.0857497 0.052077055 -0.11179361
000340 2e 89 dc bd c0 33 6e 3b 18 71 7a bd 58 a6 8c 3c
       -0.107683524 0.0036346763 -0.06114301 0.017169163
000350 20 b4 0c 3d 76 9b cf 3d d0 07 d5 3d 78 11 c4 bd
       0.034351468 0.10137074 0.10401881 -0.095736444
000360 08 9a 71 bd 64 e7 c4 bd 14 02 c8 3d 20 4c 25 bd
       -0.058984786 -0.09614447 0.09766021 -0.0403558
000370 72 c6 da bd 00 9c 55 39 ec 4a e9 3d fa 54 a4 3d
       -0.10682382 0.00020371377 0.11391243 0.080240205
000380 f8 79 cf bd fe 3f a6 bd 9c 73 88 bd 68 82 60 bd
       -0.101306856 -0.08117674 -0.06662676 -0.054811865
000390 c0 fb 94 bc 80 cf 3b bb b0 fa e2 3d 00 27 a9 ba
       -0.01818645 -0.0028657615 0.11082971 -0.00129053
0003a0 2c f7 04 bd c8 1c 0c bd e4 30 9e bd a0 9f f5 3b
       -0.032462284 -0.034207135 -0.07724169 0.0074958354
0003b0 0c 14 f0 3d f0 59 48 bc 40 15 ba bb 80 15 29 3b
       0.11722574 -0.012228474 -0.0056788027 0.0025800169
0003c0 28 c5 70 3d 20 e2 0f 3c 30 f2 a2 3c 16 69 a6 3d
       0.058781773 0.00878194 0.019890875 0.08125512
0003d0 18 74 6a 3d 9a 2a 94 bd dc f5 7e bd 9c c1 60 3d
       0.057239622 -0.07234688 -0.06224619 0.05487214
0003e0 c4 6d 6d 3d f6 32 b2 3d 70 81 8e bc be 8c fa bd
       0.05796601 0.08701126 -0.017395705 -0.12233876
0003f0 f0 3d be bd 58 0e e5 3d 80 c2 df 3a cc ca d9 3d
       -0.092891574 0.111843765 0.0017071515 0.106343836

rn.weight_hh_l0 f4 [256, 64]
000000 a0 d9 46 bd 30 49 85 3d 98 f8 d3 bd 58 22 5f bd
       -0.048547387 0.065081 -0.1035015 -0.054476112
000010 bc 86 a1 3d 10 59 b0 3c f0 cd 6a 3c 7e b4 b4 bd
       0.07887027 0.021526843 0.014331326 -0.08823489
000020 c8 3f 84 bd 3c df a3 3d 6a 70 a0 3d 4e 88 9d bd
       -0.06457478 0.08001563 0.07833941 -0.07692014
000030 78 66 b9 3c 20 26 ad 3b 58 96 88 bd d0 1c 13 bc
       0.022631869 0.005284086 -0.06669301 -0.008979037
000040 5c 57 a5 bd bc 47 45 3d b2 0a ef 3d 14 15 4f bd
       -0.08073303 0.048164114 0.11671962 -0.05055721
000050 04 1a 26 bd e0 24 b4 3d b0 ac 45 bd 8c 0c 4b 3d
       -0.040552154 0.08796096 -0.04826039 0.049572513
000060 ac 0c f8 3d 3c fa 76 bd 88 72 4e bd 40 6e 08 bc
       0.12111792 -0.060297236 -0.050402194 -0.008327067
000070 b0 02 df 3c 40 36 11 bd 28 06 46 3d f6 ca 83 bd
       0.027222961 -0.035452127 0.048345715 -0.06435196
000080 50 d3 7c bd c0 54 24 3b 14 5f 7c 3d c0 6a 8e 3b
       -0.06172496 0.002507493 0.06161411 0.0043462217
000090 60 b8 13 bd 82 48 f0 bd 28 52 f5 bd e8 4b d3 bd
       -0.036064506 -0.1173258 -0.11978561 -0.10317212
0000a0 c0 c9 0f 3b f4 1e dd bd 0e d1 a4 bd f8 de af bc
       0.002194032 -0.107969195 -0.080476865 -0.021468624
0000b0 e0 36 09 3c d2 e7 fe 3d 80 da e9 3c 40 7a 65 bc
       0.0083749 0.1244656 0.028546572 -0.014006197
0000c0 14 6e bb 3d aa 7e f7 3d 74 55 9a 3d 00 58 35 bc
       0.09151855 0.12084706 0.0753583 -0.011068344
0000d0 d0 b3 a0 bc ee 72 ab 3d 38 7f d8 bd 80 ce fe bd
       -0.019616991 0.083715305 -0.1057114 -0.124417305
0000e0 20 70 a9 3b a0 69 86 bc 20 96 be 3c 0c 07 ce bd
       0.005170837 -0.016407788 0.023264945 -0.10059938
0000f0 64 2d 08 bd c0 3d cb bb 5c fd 25 bd b0 2f 2f 3d
       -0.033246413 -0.0062024295 -0.040524825 0.042770088
000100 78 b6 c6 3d 9a 77 fb bd 80 1b e8 3d 92 12 a3 3d
       0.09702772 -0.122786716 0.1133337 0.079625264
000110 c6 e6 83 3d 5c 4d 40 bd 84 12 c1 3d 96 e6 9f bd
       0.06440501 -0.046948776 0.0942736 -0.07807653
000120 26 29 95 3d 60 99 c7 3b a0 1e e4 bb 38 1b f7 3c
       0.07283239 0.006091282 -0.0069616586 0.030164346
000130 10 bd 99 3d d0 fe fc bc 3c 87 e1 3d 9c ff 91 3d
       0.07506764 -0.030883223 0.11012122 0.07128832
000140 64 99 8f 3d c0 70 8f bc c0 d8 91 3d c8 d1 5b bd
       0.07011679 -0.017509818 0.0712142 -0.05366686
000150 38 b5 16 3d 2c 01 b9 3d 4c d9 70 3d 78 9d 79 bd
       0.036793917 0.09033427 0.05880098 -0.06094119
000160 00 d0 34 3d 8e 95 83 3d 90 86 e3 3d c0 e0 f2 bb
       0.044143677 0.0642501 0.1110965 -0.007412046
000170 c0 4a 8b 3c 74 40 98 3d ae 9e 80 3d e2 49 a6 bd
       0.017003417 0.074341685 0.06280266 -0.08119561
000180 f6 eb 84 3d 24 3e f0 3d 54 d2 30 3d c0 20 92 bb
       0.064903185 0.117306024 0.043169335 -0.0044594705
000190 90 c4 48 3c 24 31 4c 3d 80 ff c5 3c 00 cd 9c 3c
       0.012253895 0.04985155 0.024169683 0.01914072
0001a0 b8 0b 68 3d f4 0e 6f bd e2 fb d4 3d b4 fc 51 3d
       0.0566518 -0.05836387 0.10399605 0.051266387
0001b0 74 6a cb 3d c4 55 e2 bd f8 0b ab 3d b0 7d d7 bc
       0.09932414 -0.11051515 0.08351892 -0.02630505
0001c0 38 77 4b bd 3a 7f bd 3d 60 cf 17 bd 1a 86 be 3d
       -0.049674243 0.09252782 -0.037063003 0.093029216
0001d0 f2 9d d1 3d f8 3b 8c bd b0 0f ba bd 9e 53 f2 bd
       0.10235204 -0.06847376 -0.090850234 -0.11832355
0001e0 00 9b d7 3b d8 c3 34 bd 60 14 94 bb c8 32 46 3d
       0.0065797567 -0.044132084 -0.0045190305 0.048388273
0001f0 0e ec 99 3d 88 58 be 3c cc 76 8c 3d 60 92 b2 3c
       0.07515727 0.023235574 0.06858596 0.021798313
000200 90 0a d9 bc 1c 4f fe bd 6c de 84 bd 98 9b cd bc
       -0.026494294 -0.12417433 -0.06487736 -0.025098607
000210 26 e4 f9 bd 48 67 ed bd 88 1d e0 3d 00 53 e3 bc
       -0.12201719 -0.11591965 0.10943133 -0.027749538
000220 f6 a0 9b 3d 30 ab 1d 3d 3c ce dc 3d 1e 25 d6 bd
       0.0759906 0.038493335 0.107815236 -0.10456298
000230 62 d7 e7 3d b0 05 e7 3d b4 85 a2 3d 00 f9 7a 3c
       0.11320378 0.11280382 0.07935658 0.015318155
000240 e0 e5 7c 3d 10 a2 ce 3c fc 99 b9 bd 00 ba 23 ba
       0.061742663 0.025223762 -0.09062573 -0.00062456727
000250 de 08 f0 bd 6c 3c 85 bd 30 af 58 bc 98 6d b5 bc
       -0.11720441 -0.06505665 -0.013225362 -0.022146985
000260 9c 2a 9f bd a8 71 8c 3c 50 04 f0 3d 28 96 76 3d
       -0.07771799 0.01714404 0.117195725 0.060201794
000270 de ae 83 bd a6 5d ea 3d bc 94 d2 3d ea 6e fb bd
       -0.06429838 0.11443643 0.10282275 -0.122770146
000280 10 6f 43 bd 38 5d 10 3d 9e b4 c4 3d 38 78 65 3d
       -0.04771334 0.03524515 0.096047625 0.056022853
000290 e8 3e e4 bd 38 68 43 bd 26 03 94 3d e4 3a 2c 3d
       -0.11144811 -0.047706813 0.07227163 0.04204835
0002a0 f2 7d dd 3d a0 2a 19 bc 3c 08 be bd fe e2 a3 3d
       0.10815038 -0.0093485415 -0.09278914 0.0800228
0002b0 42 06 fe bd 80 de 30 3d e2 cb 8a 3d c0 15 f2 bd
       -0.12403537 0.043180943 0.06777169 -0.11820555
0002c0 b6 8e 89 3d 14 51 45 bd da 10 ed 3d 04 50 ef bd
       0.06716673 -0.048173025 0.1157548 -0.11685184
0002d0 ae 79 f1 3d 94 c1 30 3d dc 2a 43 3d e8 a2 ba bc
       0.11790787 0.04315336 0.047648296 -0.022782758
0002e0 10 27 e6 bc 50 55 a5 3d f0 61 6d bd b4 84 d5 3d
       -0.028094798 0.08072913 -0.05795473 0.10425702
0002f0 ba 02 ed 3d b0 9f 04 3d 78 3b 46 3d c0 6f 61 3c
       0.11572786 0.032378852 0.048396558 0.013759553
000300 a0 00 5e bc 50 77 e2 3c 00 79 96 bc fe aa b4 bd
       -0.013549954 0.027644783 -0.018368244 -0.08821677
000310 10 03 f4 bd 2c b9 70 3d 84 75 9e bd 58 d7 ca bc
       -0.119146466 0.058770344 -0.07737258 -0.024760887
000320 80 eb 38 bc be d1 e7 3d 24 92 00 3d 60 4e bb 3d
       -0.011286616 0.11319302 0.03138937 0.09145808
000330 58 dc de 3d 88 0a 35 3d 80 36 9a bc 96 02 8c 3d
       0.10881871 0.044199497 -0.018824816 0.06836431
000340 a0 70 7a 3d b0 7c eb bc 34 1b 6a bd e0 ca c7 3c
       0.061142564 -0.02874598 -0.05715485 0.02438873
000350 2c ee b9 3d cc 03 da bd 80 6f 80 bb ce 26 bc bd
       0.09078631 -0.106452554 -0.003919542 -0.09187089
000360 40 34 aa bc ec 7e a9 3d 10 79 03 bd 84 91 8e 3d
       -0.020776868 0.082761616 -0.032097876 0.06961349
000370 fc 46 8a 3d b6 ae 9b bd cc ff 39 3d f8 78 d9 3d
       0.067518204 -0.07601683 0.045409963 0.10618776
000380 ae c1 fc 3d 18 d3 dc 3c 20 a7 9a bd 0a eb 98 3d
       0.12341629 0.026956126 -0.07551408 0.07466705
000390 6a be 81 3d 92 35 98 bd cc 00 e5 bd 20 55 db bd
       0.06335147 -0.07432093 -0.111817926 -0.10709596
0003a0 48 64 dd bd 54 f0 99 bd 28 2c e3 3c 14 0d 3e bd
       -0.10810143 -0.07516542 0.027731016 -0.04639919
0003b0 50 93 e2 bc 10 c9 ee bc d8 12 90 bd 04 82 e0 bd
       -0.027658135 -0.029148608 -0.07034844 -0.109622985
0003c0 b2 96 ed bd 26 7d fc bd fa c4 a8 3d b8 ee 59 bd
       -0.116010085 -0.12328558 0.08240695 -0.053206176
0003d0 a0 ad f7 3b 62 ca b3 3d 8e 37 db 3d a4 43 5a 3d
       0.0075585395 0.08778836 0.107039556 0.053287163
0003e0 7e d3 bf 3d 70 be 9a 3d 0c 09 f5 bd 18 c0 eb 3d
       0.09366511 0.07555854 -0.11964616 0.11511248
0003f0 a0 4e a5 3b 60 ea ea bc 10 74 2e 3c f4 bf ba 3d
       0.005044773 -0.028676212 0.010647789 0.091186434

rn.bias_ih_l0 f4 [256]
000000 00 bf 6e bc 40 fd 6c bc 50 f1 e3 bd 7e 19 d4 3d
       -0.014571905 -0.014464676 -0.11130011 0.10356425
000010 dc fa a6 bd 70 52 0f bc 74 c0 f9 3d 10 9b aa bd
       -0.081533164 -0.008747682 0.12194911 -0.08330357
000020 40 65 ae bb 0c 68 0c bd 50 55 ed 3d 60 03 33 3c
       -0.0053221285 -0.034278914 0.11588538 0.010926098
000030 16 f0 e9 bd c2 d5 d2 bd 6e dd f2 3d 90 f9 e6 bd
       -0.11422746 -0.10294677 0.118586406 -0.11278069
000040 84 56 c0 3d 92 85 ec 3d b4 0c 54 3d 02 30 b6 bd
       0.093915015 0.11548914 0.051769927 -0.088958755
000050 00 d1 10 3a f6 c1 d2 bd e0 13 2e bc cc aa 6f 3d
       0.00055243075 -0.10290901 -0.010624856 0.058512494
000060 d8 8a e7 3d 44 13 99 bd e4 3c 3d bd 74 17 94 bd
       0.11305779 -0.07474378 -0.046200648 -0.07231036
000070 22 97 d7 3d 10 60 50 3d a0 c8 91 3c e0 68 fb bd
       0.10526873 0.050872862 0.01779586 -0.12275863
000080 fc 8a 71 bd 48 7b bc 3c 94 35 d6 bd 88 ec b0 3c
       -0.058970436 0.023008004 -0.10459438 0.021597162
000090 74 c2 ab bd f0 cd 4d 3d 2c f6 89 3d 38 ea c3 bd
       -0.08386698 0.050245225 0.06736407 -0.09566158
0000a0 5c 1c ae 3d 58 2e cf bc c0 0c fe bd b6 a5 bf bd
       0.08501503 -0.025290653 -0.124047756 -0.09357779
0000b0 44 6d b5 3d d0 26 c8 3d 66 05 fe bd 9c 59 77 3d
       0.088587314 0.09773028 -0.124033734 0.060388193
0000c0 d8 13 f3 bd 48 bf d6 3c 50 c4 5a 3d 32 5b b3 bd
       -0.11869019 0.026214257 0.053409874 -0.087576285
0000d0 e4 a1 ff 3d 9e 6d c7 bd 94 a5 d4 3d 04 90 cf bd
       0.1248205 -0.09737705 0.10383144 -0.10134891
0000e0 96 63 a5 bd 60 55 31 3d 10 91 cf 3d 16 34 bd bd
       -0.08075635 0.04329431 0.1013509 -0.0923845
0000f0 28 58 74 bd 80 16 67 bc 16 21 e2 3d 00 16 e9 3d
       -0.059654385 -0.0141044855 0.11041467 0.11381149
000100 3a 53 e5 3d e0 a4 e2 bb 3c fd db bd fa bf 95 3d
       0.11197515 -0.0069166273 -0.1074166 0.07312007
000110 14 12 d7 3d de 6d 8c bd 70 11 6f bc 00 0b d3 3a
       0.10501495 -0.06856893 -0.01459156 0.0016101301
000120 94 fc 9b 3d e4 10 15 3d 3a 89 eb bd d0 87 29 3d
       0.07616535 0.03639306 -0.11500783 0.041389287
000130 96 0a 86 bd 14 d8 19 bd 60 40 ba 3c 2e c2 bb 3d
       -0.06544988 -0.037559584 0.022735775 0.09167896
000140 6c 1b 8f 3d cc 02 7e 3d bc ae b2 3d 2c fb d3 3d
       0.06987652 0.062014386 0.08724734 0.103506416
000150 36 12 da 3d 20 d7 96 3b 8c 6e 23 3d 38 cd 5f bd
       0.10648005 0.0046032816 0.039900348 -0.05463907
000160 98 97 6e bd f8 17 e9 3d a2 23 ed bd e8 ad 60 3d
       -0.05825004 0.11381525 -0.11579062 0.05485335
000170 78 84 a8 bc 38 69 8c 3c 00 44 12 b9 58 54 c5 bc
       -0.020570979 0.017140016 -0.00013948977 -0.02408807
000180 ec d8 37 bd 80 a7 67 bc b8 f9 9f bc a0 b6 b8 bc
       -0.044884607 -0.014139056 -0.019528255 -0.02254802
000190 a2 0b e6 bd 7e 28 e6 3d 70 72 f5 bc 68 c8 88 3d
       -0.112326875 0.11238192 -0.029961795 0.066788495
0001a0 40 96 a1 bb f6 ea f4 3d e4 bb a9 bd c8 25 d4 3d
       -0.0049312413 0.11958878 -0.082877904 0.10358769
0001b0 98 23 6d 3d 50 ac 93 3d 38 5e f0 bd e0 88 e5 3b
       0.057895273 0.072106004 -0.11736721 0.007004842
0001c0 50 4c c3 bc 84 d6 0e bd 00 87 0c 3b d8 1d 76 bd
       -0.0238401 -0.034872547 0.002144277 -0.060087055
0001d0 f8 39 40 3d 80 ab ba 3a c0 6b 27 3c f8 f1 e7 3d
       0.046930283 0.0014241785 0.010218561 0.11325449
0001e0 d0 cd 17 bc 00 6b be bd 50 9e 58 3c de 3a a1 bd
       -0.009265378 -0.092977524 0.013221338 -0.07872556
0001f0 00 f5 33 3b b0 7f cb 3d 18 ea 80 bd 24 59 d9 3d
       0.0027459264 0.09936464 -0.0629465 0.10612705
000200 d4 c1 25 bd 74 4f 8d 3d e0 c6 81 bd 3a fc c9 bd
       -0.040468052 0.0689992 -0.063367605 -0.098625615
000210 f2 ad ec bd 18 21 6f 3d 50 c6 df bd 38 70 d3 3c
       -0.11556615 0.05838117 -0.10926497 0.025810346
000220 b2 3f eb bd 74 28 03 3d d8 ba bb bc 70 3d d6 3d
       -0.11486758 0.032021 -0.022916242 0.10460937
000230 1a d1 c4 3d b6 1d c3 3d 58 d2 b4 3d 9c f1 97 bd
       0.096101955 0.09527151 0.088291824 -0.0741913
000240 b0 82 d8 bc 60 41 3e bd 9e d8 e3 3d 48 f2 c0 bc
       -0.026429504 -0.046449065 0.11125301 -0.023553029
000250 50 e5 0e 3c b2 eb ec 3d 2a 2c b1 3d 00 56 7b bc
       0.008721665 0.11568393 0.08651002 -0.015340328
000260 d0 59 fe bc 6e de a0 3d ee 7a cb bd d8 9c ae 3c
       -0.031048685 0.07854925 -0.09935556 0.021315023
000270 56 32 8c 3d 44 46 86 bd ea 00 c8 3d 60 5c 4b bc
       0.06845538 -0.06556371 0.09765799 -0.012412161
000280 1c 22 4e bd ea 1e ad 3d 56 a9 b7 bd e8 c9 fa 3d
       -0.050325498 0.08453162 -0.08967845 0.12245542
000290 90 25 cf bc 48 f1 87 3d 54 81 d8 bd c8 70 b1 bd
       -0.025286466 0.066378176 -0.105715424 -0.086640894
0002a0 dc 66 cf bd 68 1b 3a bd 94 69 89 bd c0 bf 5b bc
       -0.10127041 -0.045436293 -0.067095906 -0.013412416
0002b0 38 57 1d bd 12 bf e0 3d cc 8d 2f bd 50 65 e9 bc
       -0.038413256 0.10973944 -0.042859837 -0.028490692
0002c0 8e b4 d6 3d 04 66 6a bd c6 cc 9e bd 72 6e dd 3d
       0.10483657 -0.057226196 -0.07753901 0.108120814
0002d0 a8 ee 67 3d 0e 28 b0 bd 5c 26 51 3d 7c 5a 76 bd
       0.056624085 -0.0860139 0.051061973 -0.060144886
0002e0 38 d3 8f bd d4 50 a3 bd 60 c2 ce bc 56 8f 94 bd
       -0.07022709 -0.07974401 -0.02523917 -0.07253902
0002f0 c2 87 b0 bd d0 54 87 3c 16 2d fc 3d 04 8d 92 bd
       -0.08619644 0.016519934 0.12313287 -0.07155803
000300 90 6d da bc fc 60 b7 bd d4 91 7a bd ca a2 eb 3d
       -0.026663572 -0.08954045 -0.06117423 0.11505659
000310 a8 82 aa 3d 60 92 2d bc 9a 00 ed 3d c8 d4 e5 3c
       0.08325702 -0.010593981 0.1157238 0.028055564
000320 9a db d7 3d 6e 84 ad 3d d0 e1 9f bc 78 5e e8 3d
       0.105399325 0.084725246 -0.019516855 0.113461435
000330 48 77 d8 bd e4 49 7d bd 30 df aa bc 86 2d a8 3d
       -0.10569626 -0.061838046 -0.020858377 0.08211808
000340 14 a1 66 bd b0 41 c8 bd 08 7b b8 bc 28 9c 87 3c
       -0.05630596 -0.09778154 -0.022519603 0.016553953
000350 16 c5 9d bd a8 ee 52 bd 04 ac 16 bd c8 9d 9d bd
       -0.07703607 -0.05149713 -0.03678514 -0.0769611
000360 1c 93 73 bd d8 79 9f bd 34 c2 a0 bd 68 9c 96 bd
       -0.059466466 -0.07786912 -0.07849541 -0.07354051
000370 66 4f c7 bd 88 fc 3a bd 98 a7 45 bd e0 31 33 3d
       -0.09731941 -0.04565099 -0.048255533 0.043748736
000380 a4 71 d0 bd d4 f9 c8 3d 0c f3 16 3d 4c b3 59 3d
       -0.10177925 0.09813276 0.03685288 0.053149506
000390 a8 61 c2 bc bc d3 fe 3d 18 cc a2 3d 86 e5 ef bd
       -0.023728207 0.12442729 0.07949084 -0.117137
0003a0 fe 99 80 3d e8 4e d4 3c 68 00 21 3d e2 59 da bd
       0.06279372 0.025916532 0.039307028 -0.10661675
0003b0 80 b5 8f bc b4 da 43 3d 0a d1 e8 3d 84 22 38 bd
       -0.0175426 0.047815993 0.11367996 -0.04495479
0003c0 fc a8 b2 3d 58 d5 dd bd 20 8e 34 3d 00 46 95 3c
       0.087236375 -0.10831708 0.044080853 0.018221855
0003d0 9a 94 93 bd 66 16 b5 3d 78 6c 3a bd 96 fd 99 3d
       -0.07206078 0.08842163 -0.0455136 0.07519071
0003e0 10 12 ce 3d 78 fb 2d 3d 14 95 19 bd 5e 04 aa 3d
       0.10062039 0.042476147 -0.037495688 0.08301614
0003f0 5c a0 f0 bd 70 7f bf 3d 20 c1 5b bd 4e 09 d3 bd
       -0.11749336 0.09350479 -0.053650975 -0.10304509

rn.bias_hh_l0 f4 [256]
000000 4c 4f f2 bd 10 26 de 3d 10 86 1d bc ac 48 19 bd
       -0.11831531 0.108471036 -0.0096144825 -0.03742282
000010 4c 10 1c 3d a8 1f b4 bc c0 80 37 3c f8 f6 74 3d
       0.03810148 -0.021987751 0.01120013 0.05980584
000020 3c 65 07 bd e6 4e c5 bd f8 29 ad bd e0 7f 77 bd
       -0.03305553 -0.09634189 -0.084552705 -0.060424685
000030 7c 97 40 bd e6 79 a8 bd bc f5 53 3d 48 06 86 bd
       -0.047019467 -0.08226375 0.051748022 -0.06544167
000040 48 fa d3 3c c8 f8 1c bd 80 bd 79 bc 20 9a 13 bc
       0.02587618 -0.038323194 -0.015242934 -0.009008914
000050 e8 1d cb 3d 26 8b bc bd 02 24 e9 bd 68 57 84 3c
       0.099178135 -0.09206228 -0.11383821 0.01615496
000060 e0 2e 17 3d 90 90 54 bc fe 8b 86 3d f0 bb 1b 3c
       0.036909938 -0.0129739195 0.0656967 0.009505257
000070 e0 ba 58 3c aa 9c 89 3d 7c 41 10 bd c4 7e 6e bd
       0.013228148 0.067193344 -0.0352187 -0.058226362
000080 e0 cf f8 bc 82 61 eb bd de 33 d1 bd 78 c7 4c bd
       -0.03037256 -0.114932075 -0.10214971 -0.049994916
000090 1e eb bd bd a0 35 32 bd 40 f1 40 bc a2 65 8f bd
       -0.09273361 -0.043508172 -0.0117762685 -0.07001807
0000a0 40 f8 a7 3b 80 38 35 3b 62 13 f2 3d b0 80 f2 3d
       0.0051260293 0.0027652085 0.11820103 0.118409514
0000b0 98 c2 52 3d 1a 5f 83 bd fa 54 ed bd c0 10 3b 3d
       0.05145511 -0.064146236 -0.115884736 0.04567027
0000c0 7e a7 b4 3d c0 d0 6d 3b c4 b0 27 bd 80 1c b9 3a
       0.08821009 0.0036287755 -0.04094006 0.0014122874
0000d0 bc 6b 5a 3d d2 1d e5 bd 48 f7 08 3d 7c 3f 3a bd
       0.0533254 -0.111873284 0.03343895 -0.0454707
0000e0 e0 d0 55 bc 8c d1 43 3d e8 a4 d7 3c 1c bf 47 bd
       -0.013050288 0.04780726 0.02632375 -0.04876624
0000f0 a6 8e f6 bd 40 02 c5 3d d0 c4 6c bc 7c 8f 42 3d
       -0.12038927 0.0961957 -0.014451221 0.04750012
000100 d8 40 ad bd c8 3e f7 bd 14 0d 81 bd 00 aa b2 b9
       -0.084596336 -0.120725214 -0.063013226 -0.00034077466
000110 fc 5c f4 3d 8e 96 f1 bd 00 8c 0c 3a ec 1a 64 3d
       0.11931798 -0.11796294 0.0005361438 0.055689737
000120 8c 3b af bd 50 20 7b 3d b0 ad 6d bc 3e b5 e9 3d
       -0.085562795 0.061310112 -0.014506742 0.11411522
000130 d4 06 3e bd 90 ac 63 3d a0 04 06 bc f0 28 d0 bd
       -0.04639323 0.05558449 -0.008179814 -0.10164058
000140 00 2c ad ba dc a6 f0 3d 68 3c 94 bd 4c 5b 04 bd
       -0.0013211966 0.11750576 -0.07238084 -0.03231363
000150 78 8d 53 3d a8 cb 80 bd 84 27 aa bd a4 5c 2d bd
       0.051648587 -0.06288844 -0.08308318 -0.042324677
000160 f6 54 ce bd 22 06 a1 bd ca 53 f9 bd ba fe dd bd
       -0.10074799 -0.07862498 -0.121741846 -0.10839601
000170 e4 8b 43 3d ec ad 89 bd ac b7 9b bd 46 10 95 3d
       0.047740832 -0.06722626 -0.07603392 0.072784945
000180 e2 9e 85 bd 1a c3 a1 bd ba 5d ea bd 5c a3 8d 3d
       -0.06524445 -0.07898541 -0.11443658 0.06915924
000190 ec 1a 89 bd 9c 33 53 3d 3e ca bc bd 10 cb f1 3c
       -0.06694588 0.05156289 -0.09218262 0.029515773
0001a0 2c 6b 68 bd ac bd e3 3d e0 97 a9 3c 98 ee e4 3c
       -0.056742832 0.111201614 0.020702302 0.027945802
0001b0 50 9c c1 bd d0 d3 ee 3c 66 de af 3d 94 73 7c bd
       -0.09453642 0.029153734 0.08587341 -0.06163366
0001c0 02 56 e9 bd 38 31 c7 3d d0 89 e6 bc 40 ed 5b 3c
       -0.11393358 0.097261846 -0.028141886 0.013423264
0001d0 4c 86 28 bd 18 ca 9a bd 1c cf be 3d 00 26 9c 3c
       -0.0411437 -0.075580776 0.09316847 0.019061089
0001e0 d8 3c 3d bd cc e0 66 bd 02 91 a0 3d 78 31 aa 3d
       -0.046200603 -0.056366727 0.07840158 0.08310217
0001f0 82 73 e4 bd f4 d9 cb 3d 8a ea c9 bd a8 41 59 3d
       -0.11154844 0.09953681 -0.09859188 0.05304113
000200 30 3b 93 3d 4e 92 a9 bd 96 86 8c bd 1e 07 90 bd
       0.071890235 -0.082798585 -0.06861608 -0.070326075
000210 f2 c0 80 bd 4e 15 af bd 30 56 f0 bd f8 2a 8c bc
       -0.062868014 -0.085489854 -0.11735189 -0.017110333
000220 e8 f2 41 3d a0 3b ac bd 3c 2b ae 3d 8c 5e 7d 3d
       0.047350794 -0.0840981 0.0850434 0.061857745
000230 40 3d f5 3d 3c 00 a7 bd e0 7d 17 bc ac b0 bf bd
       0.11974573 -0.081543416 -0.0092463195 -0.09359869
000240 00 41 c7 3b d4 5e 14 bd 4a 23 fc bd e8 87 36 3d
       0.0060807467 -0.036223248 -0.12311418 0.044563204
000250 d4 55 3b bd 34 38 29 3d 08 f9 81 bc ac 52 dd bd
       -0.04573615 0.041313365 -0.015865818 -0.10806784
000260 0e 13 ef 3d 4a a2 ea 3d 96 b7 b1 bd 50 ea 1a 3d
       0.11673556 0.114567354 -0.08677594 0.037821114
000270 8c 69 89 3d 1c 79 54 3d fa 60 b2 3d e4 06 a9 bd
       0.067095846 0.05187331 0.08709903 -0.082532674
000280 48 f1 8a bd c6 2d e6 bd 40 ba 29 3b e2 c5 80 3d
       -0.06784302 -0.11239199 0.0025898367 0.06287743
000290 90 a0 e3 3c 50 d5 83 3d e8 0b 77 bd b8 87 b1 3d
       0.027786523 0.064371705 -0.06031409 0.086684644
0002a0 d2 3a 97 bd 48 20 a0 bd f6 75 d3 bd 80 ec 00 bd
       -0.07384266 -0.07818657 -0.10325234 -0.031475544
0002b0 b0 1b 1f bd a0 14 03 bc 34 83 9d 3d 50 6d 2d 3d
       -0.038844764 -0.008000523 0.07691041 0.042340577
0002c0 f4 17 6e bd 10 cd 09 bd d8 24 e9 3c 4c 9b d3 3d
       -0.058128312 -0.03364283 0.028459951 0.10332355
0002d0 94 87 4c bd 6a d5 a5 bd 58 9a 64 bd 94 84 9a 3d
       -0.049933985 -0.08097346 -0.055811256 0.075448185
0002e0 30 84 4d bd 9a 8b c4 bd 98 a8 e7 3d 7c 4d 1f 3d
       -0.050174892 -0.095969394 0.113114536 0.038892254
0002f0 ea 6b 90 bd 86 f7 c8 bd de 5c f9 3d a0 35 6b bd
       -0.07051833 -0.09812836 0.12175916 -0.057424188
000300 8c d3 35 3d 08 cb 00 3d d0 d7 c1 bd 92 57 c4 3d
       0.0443912 0.031443626 -0.09464991 0.09587015
000310 c6 cf aa 3d 10 70 04 3c 58 de 30 bd cc 08 5e bd
       0.08340411 0.008083358 -0.043180794 -0.054207608
000320 16 7b c9 3d e0 18 10 bd 50 46 8b bc f8 c2 d2 3d
       0.0983793 -0.035179973 -0.017001301 0.102910936
000330 00 e1 3e ba 54 38 b0 3d 64 93 33 3d 80 ab bf 3c
       -0.00072814524 0.08604494 0.043841735 0.023397207
000340 28 00 a3 3c 34 0d a0 3d 88 97 df bc 28 b1 28 bd
       0.019897535 0.07815018 -0.027293935 -0.041184574
000350 34 ff 7c bd 86 91 d9 3d ec be 6d 3d 10 f5 d9 3c
       -0.06176682 0.106234595 0.058043405 0.026606113
000360 72 87 f3 3d 20 08 bf bd 98 bd cf bc 72 2f dc 3d
       0.118910685 -0.093277216 -0.02535896 0.10751237
000370 80 ae 27 3b c0 ac fc bc b0 b8 4b bd 70 32 70 bd
       0.0025586188 -0.030844092 -0.04973668 -0.05864185
000380 c6 4d c1 3d 00 bf 8e 3c c0 ab 09 3c 20 7a b9 bd
       0.09438662 0.01742506 0.008402765 -0.090564966
000390 70 bd 53 bc d2 af 97 bd 58 ab f9 bd 78 b3 e9 bc
       -0.012923583 -0.07406582 -0.12190884 -0.02852796
0003a0 00 17 ef bc 94 26 53 bd 6e 39 e3 3d 7e 88 c1 3d
       -0.029185772 -0.051550463 0.11094938 0.09449862
0003b0 28 fd 7c 3d 98 fa 6b bd 96 ee a0 3d f0 1c ff bd
       0.061764866 -0.05761203 0.07858007 -0.12456691
0003c0 48 51 a2 bd 0c b6 ff bd 10 45 f4 bc 18 66 ee bd
       -0.079256594 -0.124858946 -0.029818088 -0.116405666
0003d0 f0 0a 8a 3d fa 84 fb 3d 34 01 b3 3d 18 99 bc 3c
       0.067403674 0.12281223 0.08740464 0.02302222
0003e0 d8 5e de 3c 4a a8 9e 3d 06 71 ce 3d 50 a2 db bc
       0.027144834 0.07746942 0.10080151 -0.026810795
0003f0 b0 df 16 bc 28 13 90 bc d0 51 7a 3d cc 46 90 3d
       -0.009208605 -0.01758726 0.06111318 0.070447534

rn.weight_ih_l1 f4 [256, 64]
000000 90 2d 61 bc 06 05 c8 bd 42 26 cd 3d 60 95 12 bd
       -0.013743773 -0.09766583 0.10017063 -0.035786986
000010 30 67 ae 3c b2 c9 f0 bd 0e 64 ac 3d 08 91 8e 3c
       0.021289438 -0.1175722 0.084175214 0.01740314
000020 60 da a2 3d b8 02 98 3c a0 89 f2 3d ba b7 f1 3d
       0.07951808 0.018555984 0.11842656 0.11802621
000030 58 b1 8a 3c 30 74 b6 bd 00 f8 e1 3d ea 51 cf 3d
       0.016930267 -0.0890888 0.1103363 0.10123046
000040 00 d4 af 3a e0 66 97 3c 90 d9 11 3d 9e 25 9b 3d
       0.0013414621 0.018481672 0.035607874 0.07575534
000050 2e 1e bc bd 7c 2a 69 bd d4 01 a2 bd 80 76 d0 3c
       -0.09185444 -0.056925282 -0.07910505 0.02544713
000060 80 15 6c 3b d0 d2 68 bd 78 e3 50 bd 68 37 aa bc
       0.0036023557 -0.05684167 -0.05099818 -0.020778373
000070 98 90 55 3d 40 0c c8 bb 50 60 aa bc 50 68 b0 3d
       0.05213985 -0.006104976 -0.020797879 0.08613646
000080 78 a1 28 3d 38 44 d4 3c a4 b1 4e 3d 38 3f a4 3c
       0.041169614 0.025911435 0.05046238 0.020049676
000090 72 55 92 bd 90 fe ad bd a0 a9 98 bb 92 56 a0 3d
       -0.07145204 -0.084958196 -0.0046588928 0.07829012
0000a0 82 14 9f bd a0 11 28 bd 8a 99 dc 3d c2 f5 e4 3d
       -0.077675834 -0.041032434 0.10771473 0.11179687
0000b0 7e 82 f1 bd e4 c6 30 3d 70 40 a4 3d 90 dd 12 3c
       -0.117924675 0.043158427 0.08020103 0.008963957
0000c0 0a 6c 93 bd 9a b6 94 3d 40 d2 ef 3b 98 1d d5 3c
       -0.07198341 0.07261391 0.007318765 0.026015088
0000d0 68 e3 13 bd b6 53 ff 3d c8 c9 8b 3c 04 5c d5 3d
       -0.036105543 0.124671385 0.01706399 0.10417941
0000e0 98 31 8a 3d 60 88 2d bc 94 f2 c3 3d 30 3d 42 3d
       0.067477405 -0.010591596 0.095677525 0.047421634
0000f0 be 8b 98 bd 38 0c dc 3d e4 0b d5 3d e8 e2 49 3d
       -0.07448529 0.10744518 0.104026586 0.04928866
000100 70 08 c3 3d c0 d9 e5 3b 5c f8 41 3d b4 fb 78 bd
       0.09523094 0.007014483 0.047355995 -0.060786918
000110 fa 19 fe 3d 04 52 f3 3d 7a fc d7 3d 32 82 a7 3d
       0.124072984 0.118808776 0.10546203 0.0817913
000120 30 64 36 3c 9c 51 ae bd bc fe b0 3d be 22 83 3d
       0.011132285 -0.085116595 0.08642337 0.06403111
000130 c4 a8 e7 bd 82 6d 9f bd 02 70 84 bd e4 5d f1 bd
       -0.11311486 -0.07784559 -0.06466676 -0.11785486
000140 c0 48 11 3c 40 f1 a3 3b ec c4 23 bd 10 60 a9 3d
       0.008867443 0.0050031245 -0.03998272 0.082702756
000150 d4 8e 54 3d 0e de cb bd c0 7f b6 bb 30 78 50 3d
       0.051894024 -0.09954463 -0.005569428 0.05089587
000160 b8 3d ae bc a0 30 50 3d 6a 76 d7 3d f8 eb 35 3d
       -0.021269664 0.050827622 0.105206326 0.04441449
000170 08 c1 26 bd 36 42 99 3d 98 07 86 bc 00 09 7a bc
       -0.040711433 0.07483332 -0.016361043 -0.015260935
000180 08 ae d4 3c f8 53 68 3d d0 b4 54 bc f8 3f 2c 3d
       0.02596189 0.056720704 -0.012982562 0.042053193
000190 ec df bf bd 10 c0 c8 3c 8e 32 d4 3d c8 1d 24 bd
       -0.093688816 0.024505645 0.10361205 -0.040067464
0001a0 4e 67 c4 3d 0c 64 e3 bd d8 ea 8f bd 08 47 16 bd
       0.09590016 -0.11103067 -0.07027215 -0.036688834
0001b0 f0 93 c7 3d 9c 61 50 3d ea 85 a6 3d 0c 61 b9 3d
       0.09745014 0.050874338 0.08131011 0.09051713
0001c0 ec 6b 23 3d 12 89 d4 bd 30 62 18 bc 3c 21 88 bd
       0.039897844 -0.103777066 -0.0093007535 -0.06646964
0001d0 0e d5 c4 3d c0 88 86 3d 3a 50 e6 3d a0 17 3a bc
       0.096109495 0.06569052 0.11245771 -0.011358172
0001e0 02 2a d7 3d b4 d2 bc bd b8 f8 c7 3d 00 4a 32 3b
       0.10506059 -0.09219876 0.09764236 0.0027204752
0001f0 82 c7 e0 bd d8 20 a7 3d b6 80 d9 3d b4 53 ce 3d
       -0.10975553 0.08160561 0.10620253 0.10074559
000200 58 d9 4c bd f6 4a c3 bd 58 08 98 3d 80 85 8d ba
       -0.050011963 -0.09535782 0.074234664 -0.0010797232
000210 4e d5 8b bd e0 91 e1 bb 08 dd eb 3c 6c b0 67 bd
       -0.06827794 -0.0068838447 0.02879192 -0.056564733
000220 60 c5 b8 bd 90 76 c3 bd 48 8d d3 3c f6 eb e3 bd
       -0.09022021 -0.095440984 0.025824204 -0.1112899
000230 70 9a 90 3d 5c cf b6 3d 86 ef e1 3d 00 58 e3 b8
       0.070607066 0.089262694 0.110320136 -0.00010840595
000240 28 db 6b 3d 18 7f 91 bd 62 4f ae 3d 00 72 05 bc
       0.05758205 -0.07104319 0.08511235 -0.0081448555
000250 b2 45 df bd 18 13 11 3d 30 86 05 3d 6a 0c 82 3d
       -0.10901965 0.0354186 0.032598674 0.06350024
000260 d0 f9 0d 3c 30 3f e6 bc 3c bb 8c 3d 00 fb 99 3c
       0.008665517 -0.028106302 0.068716496 0.018796444
000270 80 6c 2f bd d8 10 d5 3d c4 e9 82 3d a8 55 fc bd
       -0.042828083 0.10403603 0.063922435 -0.12321025
000280 88 22 91 3c 6c 2b cc bd 98 f1 97 3c c0 75 0e bd
       0.017716661 -0.099692196 0.018547818 -0.034780264
000290 1a 1f e6 3d 30 d4 f8 3d 48 48 ac bc e8 d5 9d bd
       0.11236401 0.121498466 -0.02103056 -0.07706815
0002a0 00 ed 58 3c 94 91 2e 3d ec c9 bf 3d 38 42 7b 3d
       0.013240099 0.042619303 0.093646854 0.061342448
0002b0 5c a9 df 3d d4 b2 e2 3d 5e ab fc bd 42 e1 cc bd
       0.109209746 0.11069265 -0.12337373 -0.10003902
0002c0 c4 6f f5 bd b0 f5 25 bd cc 7c f3 bd ec 28 36 bd
       -0.11984208 -0.04051751 -0.118890375 -0.04447262
0002d0 aa 53 e7 bd b8 28 cc 3d d4 81 94 3d d0 8d 24 3c
       -0.112952545 0.09968704 0.07251325 0.010043576
0002e0 b0 2e c0 3c 3c d2 c3 bd 66 3a 86 bd 04 03 d8 bd
       0.023459762 -0.095615834 -0.06554107 -0.1054745
0002f0 18 b7 90 3c b2 b7 c4 bd 48 4a c5 bd 1a 47 e4 bd
       0.01766543 -0.096053496 -0.09633309 -0.11146374
000300 98 a4 e1 bd 02 bd 98 bd bc 2f 59 3d e8 19 88 bd
       -0.11017722 -0.074579254 0.05302404 -0.06645566
000310 32 c7 c4 3d 5c 86 4d bd b6 d4 91 bd 50 de 5c 3d
       0.09608306 -0.050176963 -0.071206495 0.05392295
000320 80 cd f7 ba 78 01 89 3c a2 6b 98 bd 30 a8 0a 3d
       -0.0018905848 0.016724333 -0.07442404 0.033851802
000330 f0 c2 c8 3d 7c 16 56 bd 06 16 df 3d fe 32 9f bd
       0.098028064 -0.052267537 0.108928725 -0.07773398
000340 28 4b b8 bc 88 a4 af bd 10 2f 6e bc 9c c0 78 3d
       -0.022496775 -0.08576304 -0.014537588 0.06073056
000350 da ca bc bd c0 24 7d 3b a0 50 e3 bc 64 01 9c 3d
       -0.09218378 0.003862664 -0.027748406 0.07617453
000360 7c 63 a3 bd 08 c9 ea bc 38 25 60 3d c0 26 87 3d
       -0.079779595 -0.028660312 0.054722995 0.06599188
000370 20 b3 5a bc 6e fa b4 3d ce 9a dc 3d bc 1b d8 bd
       -0.013348371 0.08836828 0.10771714 -0.10552165
000380 e0 d7 a3 3d ae bf 91 3d e8 c6 2b 3d 54 74 77 bd
       0.08000159 0.07116638 0.04193774 -0.060413674
000390 b2 0c 88 bd 48 c4 d6 3d c0 e9 c7 3c d8 d3 cc 3d
       -0.066430464 0.104866564 0.024403453 0.100013435
0003a0 14 04 68 3d 9a 53 ac 3d bc 31 b4 3d 4a b8 9e bd
       0.056644514 0.08414383 0.087985486 -0.07749994
0003b0 ae 79 ec 3d d6 70 ce bd 4c 09 92 bd 2e 62 ba 3d
       0.11546646 -0.100801155 -0.071306795 0.091007575
0003c0 70 70 59 3c c2 5b d0 bd 1c 94 c9 3d 72 e0 dd bd
       0.013271436 -0.101737514 0.09842703 -0.10833825
0003d0 3c 36 3d bd 32 b0 96 bd e4 54 a5 bd d4 bb d4 bd
       -0.0461943 -0.07357825 -0.08072832 -0.10387388
0003e0 20 f8 eb 3c 72 db 90 3d c8 fb eb bd 00 1a aa b9
       0.028804839 0.07073106 -0.11522633 -0.00032444298
0003f0 fa 44 8a 3d f0 97 70 bc 06 df ef bd e0 5b 4d bd
       0.067514375 -0.014684662 -0.1171246 -0.050136447
